weights/basic_cnn_c10_ls.pth (torch, 334706 bytes, 36 tensors)

model.conv1.weight f4 [6, 3, 3, 3]
0	0xbe3ae6f6	-0.18252167
1	0xbea9367c	-0.3304938
2	0xbe96c876	-0.29449815
3	0x3e04d85e	0.12973163
4	0x3d88f4f0	0.06687343
5	0xbe09905b	-0.13433973
6	0x3e9e2467	0.30887148
7	0x3e86238d	0.26198998
8	0x3f0ae23e	0.5425147
9	0xbd45081d	-0.04810344
10	0x3e498202	0.196785
11	0x3d9631d5	0.073337235
12	0xbc9c1591	-0.019053252
13	0x3e00dec3	0.12584977
14	0x3d4820ac	0.048859283
15	0xbe41efe1	-0.18939163
16	0xbe00331a	-0.12519494
17	0xbe14becb	-0.14525907
18	0x3e0f8f59	0.14019527
19	0x3e26362e	0.16231605
20	0x3e10980a	0.14120498
21	0xbb8b0da2	-0.0042435685
22	0x3d9bac9e	0.076012835
23	0x3e8ba2ec	0.27272737
24	0xbe63ddaf	-0.22252534
25	0xbe3a89c5	-0.18216617
26	0xbdd8ed84	-0.105921775
27	0xbdef710a	-0.11691482
28	0x3e7b37e3	0.24533038
29	0xbde9adc8	-0.11410099
30	0x3da99e09	0.08282096
31	0xbf02eb90	-0.5114069
32	0xbd55767f	-0.05211496
33	0xbca53321	-0.020165982
34	0x3e022c03	0.12712102
35	0x3e8de3d6	0.27712888
36	0x3e067780	0.13131523
37	0x3ea44889	0.3208659
38	0xbd4601fb	-0.048341732
39	0x3d0fd7bf	0.03511786
40	0xbe83b039	-0.25720385
41	0xbe49f524	-0.1972242
42	0xbd6df2ee	-0.058093004
43	0x3e34fea0	0.17675257
44	0x3d34988e	0.0440908
45	0xbdf100e3	-0.11767747
46	0x3e3e140b	0.18562333
47	0x3d5b43fc	0.05353163
48	0x3de39e32	0.11114158
49	0xbea874f9	-0.32901743
50	0xbe392fd5	-0.18084653
51	0xbd6cfaaa	-0.05785624
52	0x3b49d7bf	0.003079876
53	0x3e800037	0.25000164
54	0x3e432a1f	0.19059037
55	0xbc8e5ef8	-0.017379269
56	0xbe124082	-0.1428242
57	0x3d09992e	0.03359335
58	0x3e54e0da	0.20788899
59	0xbe72560e	-0.2366564
60	0xbe04e6cf	-0.12978671
61	0xbe40c491	-0.18824984
62	0x3eb9bd5e	0.36277288
63	0x3e0082e6	0.12549934
64	0x3d4e89c3	0.05042435
65	0xbe044954	-0.12918597
66	0x3df3eb0e	0.119100675
67	0xbc92fff1	-0.017944308
68	0xbdb2d236	-0.08731501
69	0xbee11cbb	-0.43967232
70	0xbd75f8a8	-0.06005159
71	0x3ea10896	0.31451863
72	0x3eace412	0.33767754
73	0xbe06ba06	-0.131569
74	0xbea98f3a	-0.33117086
75	0xbdf6038d	-0.12012396
76	0x3d23f401	0.040027622
77	0x3d991396	0.07474439
78	0xbdc2b7e4	-0.095077306
79	0x3e080524	0.13283211
80	0x3e1a15b6	0.15047345
81	0xbc36beb7	-0.011153868
82	0x3d01d279	0.031694863
83	0xbcd71875	-0.02625678
84	0x3dcb1f69	0.099181004
85	0xbe71fc35	-0.23631366
86	0x3df2b4d9	0.118509
87	0x3d7629a1	0.060098294
88	0xbe5dc619	-0.216576
89	0x3e44ccf5	0.1921881
90	0x3e2361d6	0.1595529
91	0xbe9d0449	-0.30667332
92	0x3e1c1e2d	0.15245886
93	0x3e4a6aae	0.19767258
94	0xbea3c85d	-0.31988803
95	0x3e1a24e4	0.15053135
96	0x3e4a7eb4	0.19774896
97	0xbebc31d3	-0.36756763
98	0x3dec85ca	0.11548956
99	0x3d778841	0.060432676
100	0xbe4106f5	-0.1885031
101	0x3dabb14b	0.08383425
102	0x3e15a4d8	0.14613664
103	0xbe875cc9	-0.26437977
104	0x3e310039	0.17285241
105	0x3dd77319	0.1052
106	0xbe85e57a	-0.2615164
107	0x3e21ba24	0.15793663
108	0x3e8ce1c2	0.2751599
109	0x3e42cbec	0.19023103
110	0x3e398b0b	0.18119447
111	0x3e18b407	0.14912425
112	0x3e923c7f	0.2856178
113	0x3d3535ba	0.04424069
114	0xbe91c39b	-0.28469548
115	0xbe70a9dd	-0.23502298
116	0xbdb736e4	-0.089460164
117	0xbda6c5ca	-0.08143194
118	0x3dac00d5	0.08398596
119	0xbdd9901a	-0.10623188
120	0xbe84101a	-0.25793535
121	0x3b7abfaf	0.0038261225
122	0x3ea1b555	0.31583658
123	0xbf02073c	-0.5079229
124	0xbf00f3eb	-0.5037219
125	0xbe0b0e5c	-0.13579696
126	0x3bc4b896	0.0060034497
127	0xbe26a26c	-0.16272897
128	0xbdac44e5	-0.08411578
129	0x3a0c4ec8	0.00053523155
130	0x3e4afc7d	0.19822879
131	0x3dd2faa0	0.10301709
132	0x3d754a9b	0.059885602
133	0x3da20df4	0.079128176
134	0xbd06e9a8	-0.032937676
135	0x3e76d8d6	0.24106154
136	0xbdc65113	-0.096834324
137	0x3e2f5972	0.17123964
138	0xbd3146ef	-0.04328054
139	0xbebbb869	-0.3666413
140	0x3e3abad5	0.18235333
141	0xbe55676c	-0.20840234
142	0xbe52fae3	-0.20603518
143	0xbe6016c5	-0.21883686
144	0xbd51e129	-0.05124012
145	0x3c28c57f	0.010300993
146	0xbd63623c	-0.055513605
147	0x3e25ea78	0.16202724
148	0x3e75dcfb	0.24010079
149	0xbd61b67b	-0.055105668
150	0x3d3d9cd4	0.04629214
151	0xbdc1f3f4	-0.094703585
152	0xbde655e5	-0.11246852
153	0xbead7a24	-0.33882248
154	0x3e45ea14	0.19327575
155	0xbebbe197	-0.3669555
156	0x3dda0aae	0.10646568
157	0x3e8333ce	0.2562546
158	0x3e316eac	0.17327374
159	0x3d0d70c2	0.034531362
160	0x3ebc0cc7	0.36728498
161	0x3e027578	0.12740123

model.conv1.bias f4 [6]
0	0x3aca094c	0.0015414148
1	0xbbecd8c6	-0.00722799
2	0xbb8ba018	-0.004261028
3	0xbac5a563	-0.0015079196
4	0xba8b420f	-0.0010624545
5	0xbb8549d2	-0.004067638

model.batchnorm_1.weight f4 [6]
0	0x3f6776f0	0.9041586
1	0x3f799d80	0.9750595
2	0x3f4b7c0e	0.7948617
3	0x3fa47eb2	1.2851164
4	0x3f813b25	1.0096174
5	0x3f449477	0.7678904

model.batchnorm_1.bias f4 [6]
0	0x3e18470b	0.1487085
1	0xbdc255b2	-0.09489001
2	0xbe2260dc	-0.15857261
3	0xbdd87ac7	-0.10570293
4	0x3dda51af	0.10660111
5	0x3e20a0a2	0.15686277

model.batchnorm_1.running_mean f4 [6]
0	0xbdb85969	-0.09001429
1	0xbc87dc2f	-0.016584484
2	0xbbb12042	-0.0054054568
3	0xbc7c471e	-0.015397815
4	0x3df3beac	0.11901602
5	0xbc2eff32	-0.0106809605

model.batchnorm_1.running_var f4 [6]
0	0x3ed7666e	0.42070335
1	0x3e60df21	0.21960117
2	0x3e33cac0	0.17557812
3	0x3ed82379	0.42214563
4	0x3f896293	1.0733207
5	0x3e4916df	0.19637631

model.conv2.weight f4 [16, 6, 3, 3]
0	0xbe08d7f3	-0.13363628
1	0xbe05331d	-0.1300778
2	0xbdb60f93	-0.08889689
3	0xbde8d6ff	-0.11369132
4	0xbe1684ef	-0.14699148
5	0xbe425412	-0.18977383
6	0xbe555c3e	-0.20835969
7	0xbe4ffc41	-0.20311071
8	0xbe0eaf92	-0.13934162
9	0xbb1cb892	-0.0023913723
10	0x3ecb3d1b	0.39695057
11	0x3e213257	0.1574186
12	0x3eb0e9f8	0.34553504
13	0xbe4d4002	-0.20043948
14	0x3ee455d9	0.44596747
15	0x3e283cba	0.16429415
16	0x3e03af32	0.128598
17	0x3e2de4c2	0.16981795
18	0xbd376386	-0.044772647
19	0x3de713e3	0.1128309
20	0x3e51e004	0.20495611
21	0x3d85cc60	0.06533122
22	0x3c3d1acc	0.011542033
23	0x3e341b1f	0.17588471
24	0x3db7d02b	0.08975252
25	0x3e832428	0.25613523
26	0x3dc0b519	0.09409542
27	0xbe32ee3d	-0.17473693
28	0xbd4ae434	-0.049534038
29	0xbd02f515	-0.03197201
30	0x3b5cf8f3	0.0033717721
31	0xbdcaded9	-0.09905786
32	0x3dbad80c	0.09123239
33	0x3db29875	0.08720485
34	0x3e2f38ba	0.17111483
35	0xbd52f7f6	-0.051506005
36	0xbdb6037c	-0.08887383
37	0xbdfc8647	-0.12330299
38	0xbd99e95b	-0.07515212
39	0xbe344672	-0.17604998
40	0xbe0cc7f4	-0.13748151
41	0xbbb734d2	-0.0055910135
42	0xbdc05ab4	-0.093923
43	0xbd1b5d0c	-0.037930533
44	0xbc2fb0fd	-0.01072335
45	0x3e4d3f23	0.20043616
46	0xbdd8165c	-0.1055114
47	0xbea10f1a	-0.31456834
48	0xbcd6e8f8	-0.026234135
49	0xbdf9e516	-0.12201898
50	0xbe1d66f4	-0.15371305
51	0xbe7311e2	-0.2373729
52	0xbe35f119	-0.17767753
53	0x3d0cb4d0	0.034352124
54	0x3d8b30b6	0.067964
55	0xbde52b08	-0.11189848
56	0x3d210ab8	0.039316863
57	0x3d9b22f1	0.07575024
58	0xbcf2c62b	-0.02963551
59	0x3e88be7d	0.2670783
60	0x3ba08a98	0.004899334
61	0xbcdd4bef	-0.027013747
62	0x3db822e1	0.089910276
63	0x3e3900bd	0.18066688
64	0x3ce272aa	0.027642567
65	0x3e3a0db0	0.18169284
66	0x3e551f81	0.20812799
67	0x3df5da92	0.120045796
68	0x3e3b18ab	0.18271129
69	0x3ca05c73	0.019575333
70	0x3e122e9f	0.14275597
71	0xbd037f74	-0.03210397
72	0xbd6f9e41	-0.058500532
73	0xbd7e4101	-0.06207371
74	0xbddd9bbf	-0.10820722
75	0xbc28dda9	-0.010306754
76	0xbdd2c251	-0.10290969
77	0xbe434c9e	-0.19072196
78	0x3e084338	0.13306892
79	0xbe0655f6	-0.13118729
80	0xbe5ba94b	-0.21451299
81	0xbe1f04f4	-0.15529233
82	0xbe9d0337	-0.30666515
83	0xbe58d199	-0.21173705
84	0xbecf1033	-0.40442047
85	0xbf2cc502	-0.6748811
86	0xbf0f28b2	-0.5592147
87	0xbeda3222	-0.42616373
88	0xbf3e3b62	-0.7430936
89	0xbf116f07	-0.5681004
90	0x3d0d0d55	0.034436543
91	0x3d53ee5c	0.05174099
92	0x3dd89eea	0.105771855
93	0xbb9d68a8	-0.0048037358
94	0x3d9ce142	0.07660152
95	0x3e0a2a80	0.13492775
96	0x3d687d86	0.056760333
97	0x3e07006b	0.13183753
98	0xbbfe80ed	-0.007766834
99	0x3dc2db3f	0.09514474
100	0xbb5c24ef	-0.003359135
101	0xbdb2564a	-0.087078646
102	0x3d8010e9	0.06253225
103	0xbb8cd618	-0.004297983
104	0xbd123cf8	-0.035702676
105	0xbcb1834e	-0.021669056
106	0xbd18840e	-0.037235312
107	0xbd8ff840	-0.07029772
108	0xbe432ee4	-0.19060856
109	0xbecddc0b	-0.40206942
110	0xbe8f6099	-0.28003386
111	0xbe60b997	-0.21945797
112	0xbeade3f1	-0.33962968
113	0x3e88179d	0.26580516
114	0xbf084d1c	-0.5324266
115	0xbec1f4f1	-0.37882188
116	0x3e96df13	0.29467067
117	0xbe6911e4	-0.22760731
118	0xbe2e3e58	-0.1701597
119	0x3d42c8f2	0.047554918
120	0xbd9ff34d	-0.07810078
121	0xbc2c4dca	-0.010516593
122	0xbc3c3612	-0.011487501
123	0x3c2fb9c8	0.010725446
124	0xbd43a8f3	-0.047768544
125	0xbe12c167	-0.1433159
126	0xbe303775	-0.17208655
127	0xbd314c2b	-0.04328553
128	0x3d560676	0.052252255
129	0xbe0a8daf	-0.1353061
130	0xba003e9b	-0.00048921414
131	0x3d1446ea	0.03620044
132	0x3ce873c7	0.02837552
133	0x3e02687c	0.1273517
134	0x3cfdd5f2	0.030985806
135	0xbd2d95cd	-0.04237919
136	0xbd908e1e	-0.07058357
137	0x3c0d5e51	0.008628444
138	0xbc909954	-0.017651238
139	0xbb536263	-0.0032254688
140	0xbb666e7c	-0.0035161069
141	0xbd4164f6	-0.047215424
142	0xbcf35f27	-0.029708458
143	0x3b7edbbd	0.0038888298
144	0xbcf2bbc7	-0.029630555
145	0xbd984288	-0.07434565
146	0x3ecfd1c1	0.40589717
147	0x3db3c1b8	0.08777183
148	0x3ece5224	0.40297043
149	0x3d92ec95	0.07174031
150	0x3e841c51	0.25802854
151	0x3c49674d	0.012292695
152	0xbc69e245	-0.014275138
153	0x3c2b101d	0.010440853
154	0xbdbd3c04	-0.09239963
155	0xbd87a085	-0.066224135
156	0x3d542aa2	0.05179847
157	0xbe05af4a	-0.13055149
158	0x3c1ef3a1	0.00970164
159	0xbdb81f85	-0.08990387
160	0xbe5def21	-0.21673252
161	0x3cc66768	0.02421923
162	0x3d51798c	0.051141307
163	0x3d807811	0.06272901
164	0x3d97d209	0.07413108
165	0xbdc2dd75	-0.09514896
166	0xbd08416b	-0.033265512
167	0xbd3e62ab	-0.046480816
168	0xbea140ae	-0.3149466
169	0xbec8380e	-0.39105266
170	0xbed22b92	-0.41048867
171	0x3d04781a	0.0323411
172	0xbda5c589	-0.080943175
173	0xbe1c7ea2	-0.15282682
174	0x3d9b5196	0.07583921
175	0xbd708ee3	-0.058730017
176	0xbe82d26c	-0.25551164
177	0x3d6250ad	0.05525272
178	0xbd0e2123	-0.03469957
179	0xbe0dc5d4	-0.13844997
180	0xbd0650d0	-0.032791913
181	0xbab4cbb1	-0.0013793615
182	0x3cf891f2	0.03034303
183	0x3dbf11ef	0.093295924
184	0x3d6a108d	0.05714469
185	0x3ddd4e6e	0.10805975
186	0x3dd01896	0.101609394
187	0x3d91de1a	0.07122441
188	0x3d340ed1	0.043959443
189	0xbe51d75a	-0.20492306
190	0xbe8b1019	-0.2716072
191	0xbe463d33	-0.19359283
192	0xbde1ed6e	-0.11031614
193	0xbddc2a05	-0.10750202
194	0xbe193127	-0.14960156
195	0x3ed34f5c	0.41271484
196	0x3ebffa03	0.3749543
197	0x3f1d65ae	0.61483276
198	0x3b3eb623	0.002910026
199	0x3daa2e6d	0.08309636
200	0x3cdf8f72	0.02729008
201	0x3ba74a44	0.0051052887
202	0x3d40b1f7	0.04704472
203	0x3b9f74ec	0.004866233
204	0x3d4406c0	0.047858
205	0xbd479534	-0.048726276
206	0x3dfbb5ed	0.12290559
207	0x3d260259	0.040529583
208	0x3d69d48e	0.057087474
209	0x3c984413	0.018587148
210	0xbda1e0eb	-0.07904228
211	0x3d97a49a	0.07404442
212	0x3ca677ea	0.020320851
213	0xbdbb5d37	-0.09148639
214	0x3cfdf2fd	0.030999655
215	0xbd66f110	-0.05638224
216	0xbe050b04	-0.12992483
217	0xbd129134	-0.035783008
218	0x3e183504	0.14863974
219	0xbdfddd39	-0.123957105
220	0x3da369bb	0.07979151
221	0x3d5b6308	0.05356124
222	0xbd57b9e4	-0.052667513
223	0x3d4420d1	0.04788286
224	0xbd811734	-0.06303254
225	0xbd165667	-0.036703493
226	0x3e2d51cf	0.16925739
227	0xbda50278	-0.080571115
228	0x3ea95613	0.33073482
229	0xbcb666ab	-0.022265753
230	0xbf1d4b2b	-0.6144282
231	0x3e112070	0.1417253
232	0xbf3b5b44	-0.73186135
233	0xbeb75631	-0.35807946
234	0xbb95740f	-0.0045609544
235	0x3e83f450	0.25772333
236	0x3d4cc418	0.049991697
237	0x3e814803	0.25250253
238	0x3dfdbe30	0.12389791
239	0xbee110d7	-0.4395816
240	0x3db89328	0.09012443
241	0xbefe5e5a	-0.4968136
242	0xbde6a17b	-0.11261269
243	0xbcce3bf4	-0.025175072
244	0x3e14174a	0.14462009
245	0xbaf4bd99	-0.0018672227
246	0x3cedda71	0.029034825
247	0xbd8db0db	-0.06918498
248	0xbeb4fffb	-0.35351548
249	0xbc620990	-0.013796225
250	0xbeddfc1a	-0.433564
251	0xbdb09a90	-0.086232305
252	0x3d768252	0.060182877
253	0x3dd35a17	0.10319918
254	0xbe1fa3cb	-0.15589826
255	0x3dc1bc46	0.094597384

model.conv2.bias f4 [16]
0	0x396df704	0.00022694102
1	0xbacaf3b4	-0.0015484006
2	0xb5d2a521	-1.5694278e-06
3	0xb9e26b3f	-0.00043185984
4	0x3aa10646	0.0012285195
5	0xb96ca5b0	-0.00022568437
6	0xb9352477	-0.0001727509
7	0x385e3d36	5.298593e-05
8	0xb90cc6d6	-0.00013425513
9	0xb8890f2f	-6.535497e-05
10	0x39716aec	0.00023023383
11	0x3a2ec06b	0.0006666246
12	0x37c9c200	2.4051405e-05
13	0x3988a44f	0.0002606236
14	0x3a2d2995	0.00066056225
15	0x3a942ce0	0.0011304878

model.batchnorm_2.weight f4 [16]
0	0x3efe79d4	0.49702322
1	0x3fa02be3	1.2513393
2	0x3f4c2762	0.79747593
3	0x3f322ef7	0.6960291
4	0x3f836704	1.0265813
5	0x3f1653c5	0.5872157
6	0x3f23caec	0.6398151
7	0x3f9aaad1	1.2083379
8	0x3ee24a18	0.44197154
9	0x3f6f58d9	0.93494946
10	0x3f394f57	0.7238669
11	0x3f49ec69	0.7887636
12	0x3f12935a	0.5725609
13	0x3f25797d	0.646385
14	0x3f91441d	1.1348912
15	0x3f37bb60	0.71770287

model.batchnorm_2.bias f4 [16]
0	0xbe0a67be	-0.13516137
1	0xbf0e0492	-0.55475724
2	0xbeafce57	-0.34337112
3	0xbf006e9e	-0.5016879
4	0xbf415c31	-0.755313
5	0xbdafd316	-0.08585183
6	0xbeb1526e	-0.346332
7	0xbf32c9bb	-0.69839066
8	0x3d509da6	0.050931595
9	0xbef3c695	-0.47612444
10	0xbee30484	-0.44339383
11	0xbf2dcc50	-0.6788988
12	0xbdc033ca	-0.09384878
13	0xbd5c1714	-0.053732947
14	0xbf2c231c	-0.6724107
15	0xbef6141a	-0.4806221

model.batchnorm_2.running_mean f4 [16]
0	0xbf012215	-0.5044263
1	0xbfc90667	-1.5705079
2	0xbf980a22	-1.1878092
3	0xbea7a555	-0.32743326
4	0xbfc9ae92	-1.57564
5	0xbe9a2163	-0.30103597
6	0xbe12a0dc	-0.14319175
7	0xc01efb9d	-2.4841073
8	0xbcb075ca	-0.021540541
9	0xbf810a33	-1.0081238
10	0xbf2b60b0	-0.6694441
11	0xbf48efae	-0.7849072
12	0x3efa746f	0.48916957
13	0xc030fe2c	-2.7655134
14	0xc03b95e2	-2.9310231
15	0xbf2ebce5	-0.6825698

model.batchnorm_2.running_var f4 [16]
0	0x3fb43591	1.4078847
1	0x40adf5b3	5.4362426
2	0x400d50be	2.208053
3	0x3f8cc2cf	1.0996951
4	0x4028e7c8	2.6391468
5	0x3fe5c5c4	1.7950978
6	0x3f816fdf	1.0112265
7	0x408802ae	4.250327
8	0x3f8d4286	1.1035926
9	0x400a9669	2.1654303
10	0x3f8e5e58	1.1122541
11	0x3f8db688	1.1071329
12	0x3f8f3bca	1.1190121
13	0x4055d605	3.3411877
14	0x40690834	3.6411257
15	0x3f48121a	0.7815262

model.fc1.weight f4 [120, 576]
0	0x3d471b4e	0.048610024
1	0x3ab29e1f	0.0013627446
2	0x3d64db2f	0.055873092
3	0x3dd0bee2	0.10192658
4	0x3df08ea6	0.11745958
5	0x3e26d477	0.16291986
6	0xbe881f25	-0.2658626
7	0xbdbf0270	-0.09326637
8	0x3d49b38a	0.049243487
9	0x3d49aac8	0.049235135
10	0x3d14ae1b	0.036298852
11	0xbd894b84	-0.067038566
12	0xbc328561	-0.010896058
13	0x3e02feec	0.12792557
14	0x3e4ec66b	0.20192878
15	0x3e2098fe	0.15683362
16	0x3d7ddf09	0.06198028
17	0x3d11c4f0	0.035588205
18	0x3e518e54	0.2046445
19	0x3e1ee428	0.15516722
20	0x3e2a6b66	0.16642532
21	0x3d9d68d4	0.0768601
22	0x3d23fc32	0.040035434
23	0x3d94bb30	0.07262266
24	0x3ddeb4d8	0.10874337
25	0x3d1df2d2	0.03856165
26	0xbcf19d83	-0.029494053
27	0xbd8ced68	-0.06881219
28	0xbd352246	-0.04422214
29	0xbcc8352d	-0.024439419
30	0x3d4fdc9f	0.05074751
31	0xbca77573	-0.020441746
32	0xbcf723c7	-0.030168427
33	0xbd8c2129	-0.06842262
34	0x3ce547b4	0.027988292
35	0x3d8c8dc7	0.068629794
36	0x3cef9383	0.029245144
37	0x3d53ec43	0.05173899
38	0x3d2ee59f	0.042699452
39	0x3cc9c67a	0.024630774
40	0x3be1cd00	0.006890893
41	0xbb38f23a	-0.002822055
42	0x3df03849	0.117294855
43	0x3d6da955	0.058022816
44	0x3db6215d	0.08893082
45	0x3e0bcfe8	0.13653529
46	0x3def888e	0.116959676
47	0x3d90623f	0.07049989
48	0x3e26ff02	0.16308215
49	0x3d121a22	0.035669453
50	0xbdb6a5a5	-0.08918313
51	0xbcc04981	-0.02347255
52	0xbc81ed5f	-0.015860258
53	0x3c5aa9b8	0.013346128
54	0x3bb7c0a0	0.0056076795
55	0xbe22c451	-0.15895201
56	0xbd3dab1c	-0.04630576
57	0xbdfe7f04	-0.1242657
58	0xbdd54985	-0.10414413
59	0x3d61fa54	0.055170372
60	0xbdbc4a86	-0.09193902
61	0xbde0930e	-0.109655485
62	0xbd1744d6	-0.03693088
63	0x3bf98ba4	0.0076155234
64	0xbc550013	-0.013000506
65	0xbc861e8b	-0.016371986
66	0xbe853a38	-0.2602098
67	0xbdc352ac	-0.09537253
68	0xba40ced7	-0.000735504
69	0xbbea14a4	-0.007143574
70	0xbb9e30de	-0.0048276028
71	0xbd9ee217	-0.07757967
72	0xbdc5e1f4	-0.09662238
73	0xbbdb27a6	-0.006688076
74	0x3d96f8df	0.07371687
75	0x3df1ae9e	0.11800884
76	0x3dbdd6ac	0.09269461
77	0xbd26dc18	-0.04073724
78	0x3e063731	0.13106991
79	0x3e3ca7bd	0.18423362
80	0x3e4672f1	0.19379784
81	0x3e4edeb7	0.20202146
82	0x3dc45b91	0.095877774
83	0x3d62e809	0.055397067
84	0x3e936996	0.28791493
85	0x3e7de287	0.24793445
86	0x3e92b5e6	0.28654402
87	0x3e446324	0.19178444
88	0x3e049377	0.12946878
89	0x3d0a5a62	0.033777602
90	0x3ce7e1b6	0.02830587
91	0xbd8157be	-0.063155636
92	0xbdb2cd3a	-0.0873055
93	0xbd97db7f	-0.074149124
94	0xbdd9f31e	-0.10642074
95	0xbe465054	-0.1936658
96	0xbe0b4686	-0.13601121
97	0xbe7640b1	-0.24048115
98	0xbe4c2869	-0.1993729
99	0xbe03a690	-0.12856507
100	0xbd93c11e	-0.072145686
101	0xbdbd41ce	-0.09241067
102	0xbdf4292a	-0.11921914
103	0xbdd9ecca	-0.10640867
104	0xbd45ef6d	-0.048324037
105	0x3cb94f74	0.022620894
106	0x3d7220a8	0.059113175
107	0x3e24f8fb	0.16110604
108	0x3d09418c	0.033509776
109	0xbdbe1841	-0.0928197
110	0xbd7a052e	-0.061040096
111	0xbdce4d65	-0.100733556
112	0xbe1fa455	-0.15590031
113	0xbdc4a170	-0.09601104
114	0xbd05aa2f	-0.032633003
115	0xbd7c7062	-0.061630614
116	0xbc02c4a5	-0.007981454
117	0xbdce3d7e	-0.100703225
118	0xbdb0a2c0	-0.08624792
119	0xbdb39906	-0.08769421
120	0xbc849617	-0.01618485
121	0x3d2c7739	0.042105887
122	0xbcf915de	-0.030405935
123	0xbd36fabb	-0.04467271
124	0x3d970ff4	0.0737609
125	0x3d3c5f1a	0.045989133
126	0xbe2f76d4	-0.17135173
127	0xbdb8e19e	-0.09027408
128	0xbddfcbdb	-0.10927554
129	0xbde96332	-0.11395873
130	0xbcbb4d9f	-0.022864161
131	0xbddec62b	-0.10877641
132	0x3c9dd1ad	0.01926502
133	0x3d52a07b	0.051422577
134	0x3cd0c1e0	0.025483072
135	0x3de188e6	0.110124394
136	0x3dcea1af	0.100894324
137	0x3d95c184	0.07312301
138	0x3e24c01b	0.16088907
139	0x3df8096a	0.121111706
140	0x3df501cb	0.119632326
141	0x3e09d96a	0.13461843
142	0x3e16f634	0.14742357
143	0x3e369e5f	0.17833851
144	0xbd161caf	-0.03664845
145	0xbce632e2	-0.028100435
146	0x3da1558a	0.078776434
147	0x3e04a42c	0.12953252
148	0x3d424884	0.047432438
149	0xbcdc59a8	-0.02689822
150	0x3c0cda21	0.008596928
151	0x3d3c49d5	0.04596885
152	0x3def412b	0.11682352
153	0x3de38ca5	0.1111081
154	0xbcc7d0e9	-0.024391608
155	0xbd938aed	-0.07204232
156	0x3c9a8ca8	0.018865898
157	0x3decfe0e	0.115718946
158	0x3e00ff88	0.12597477
159	0x3d28cfaf	0.041213688
160	0xbd8d1bd6	-0.06890075
161	0xbde9e3ca	-0.114204004
162	0x3d430221	0.047609452
163	0x3d889e3e	0.06670807
164	0x3d585556	0.052815758
165	0xbd3c515c	-0.045976028
166	0x37c36289	2.3291695e-05
167	0xbb64e9ac	-0.0034929318
168	0x3db03bf5	0.08605186
169	0x3dbacd0e	0.09121142
170	0x3d884a0e	0.0665475
171	0x3db9ca8f	0.09071838
172	0x3df56616	0.11982362
173	0x3dd41e78	0.10357374
174	0x3d81b282	0.06332876
175	0x3a74f1de	0.00093439023
176	0xbc4e02a4	-0.012573872
177	0x3c0baa10	0.008524433
178	0x3dbf348b	0.09336194
179	0x3de8ffa5	0.11376885
180	0x3d029781	0.031882767
181	0x3e2daac0	0.16959667
182	0x3e32bc52	0.17454651
183	0x3e453bf6	0.19261155
184	0x3dad759a	0.08469696
185	0x3d6c6c5b	0.057720523
186	0x3b50027f	0.003173977
187	0xbc97bd53	-0.018522894
188	0x3d1d42a2	0.038393624
189	0x3d3d7f0a	0.046263732
190	0x3d362615	0.04446991
191	0x3d8b35e8	0.06797391
192	0x3c4aab9e	0.012370018
193	0x3dad0d9a	0.0844986
194	0x3cd99336	0.026559453
195	0x3bb8ce8a	0.0056398557
196	0x3dfbd6cc	0.12296829
197	0x3e55708b	0.20843713
198	0xbbeade8e	-0.007167644
199	0xbe3ec517	-0.18629871
200	0xbe8198a8	-0.2531178
201	0xbe9de2d3	-0.30837116
202	0xbe453185	-0.19257171
203	0xbdda6278	-0.10663313
204	0xbce9dec6	-0.02854861
205	0xbe98be40	-0.2983265
206	0xbee59e0a	-0.44847137
207	0xbed5a00b	-0.41723666
208	0xbe79a23e	-0.24378297
209	0xbe018b60	-0.12650824
210	0x3ce8342a	0.028345186
211	0xbd95f273	-0.07321634
212	0xbdb35986	-0.087573096
213	0xbd182093	-0.03714044
214	0xbd72d10b	-0.05928139
215	0xbc680059	-0.014160239
216	0x3d252a8a	0.04032377
217	0xbd2419b3	-0.04006357
218	0xbdc7532a	-0.09732659
219	0xbe035194	-0.12824088
220	0xbdeed9d6	-0.11662643
221	0xbd213b00	-0.039362907
222	0x3dab2271	0.083561786
223	0xbd309477	-0.043110337
224	0xbe089ebb	-0.13341801
225	0xbddccd4d	-0.107813455
226	0xbe075e1c	-0.13219494
227	0xbdb8653c	-0.09003684
228	0xbc487066	-0.012233829
229	0xbe113fad	-0.14184447
230	0xbe09ada1	-0.1344514
231	0xbdb732b2	-0.08945216
232	0xbcaedaca	-0.021344561
233	0xbd2328a4	-0.03983368
234	0xbe53e027	-0.20690976
235	0xbe378248	-0.17920792
236	0xbe2da8d3	-0.16958933
237	0xbda5a812	-0.080886975
238	0xbbc92e61	-0.006139562
239	0xbd8828ad	-0.06648383
240	0xbe2aed35	-0.1669205
241	0xbd80ba29	-0.06285507
242	0xbe3237d2	-0.17404106
243	0xbe29992e	-0.1656234
244	0xbd924449	-0.071419306
245	0xbc9ec5ef	-0.019381491
246	0xbc96cdd8	-0.0184087
247	0xbcf5730d	-0.029962087
248	0xbd8979b4	-0.06712666
249	0xbe0e494d	-0.1389515
250	0xbdef043a	-0.11670728
251	0xbd702cf4	-0.05863662
252	0xbde7c7b2	-0.11317386
253	0x3e14d568	0.14534533
254	0x3e325306	0.17414483
255	0x3c99cbdc	0.018773966

model.fc1.bias f4 [120]
0	0x3de6aef7	0.11263841
1	0xbd9bfade	-0.076162085
2	0xbedd6625	-0.43241993
3	0xbe99e191	-0.30054906
4	0xbe6cf933	-0.23141937
5	0x3e679c30	0.22618175
6	0xbdb2d8ee	-0.08732782
7	0x3ead8707	0.3389208
8	0xbf4d9945	-0.80311996
9	0xbf004cf5	-0.5011743
10	0xbf09665e	-0.53671825
11	0x3d57d6a0	0.052694917
12	0xbdf3067c	-0.11866471
13	0x3ef90d01	0.48642734
14	0xbe387be3	-0.18016009
15	0x3f645cfd	0.8920439
16	0xbd170562	-0.036870368
17	0xbf058c2c	-0.5216701
18	0x3eb83c83	0.35983667
19	0x8001136d	-9.8804e-41
20	0xbef9804a	-0.4873069
21	0x000111b1	9.8182e-41
22	0xbed56869	-0.4168122
23	0x3e4ff5cf	0.20308612
24	0x3e98cc29	0.29843262
25	0x000111a4	9.8164e-41
26	0x3eae6f0b	0.34069094
27	0xbe961e41	-0.29319957
28	0xbe667bd1	-0.2250817
29	0x3ec23b14	0.37935698
30	0x0001141a	9.9047e-41
31	0x800113cc	-9.8937e-41
32	0x3e17b6d8	0.14815843
33	0x3ea0b484	0.31387722
34	0xbe896056	-0.2683131
35	0x3ede65b9	0.43436983
36	0x3b37fa68	0.0028072838
37	0xbd44c305	-0.048037548
38	0x3f205910	0.626359
39	0xbe15793a	-0.14597026
40	0xbbdab832	-0.00667479
41	0xbe50ec23	-0.20402579
42	0xbe959e90	-0.29222536
43	0xbd58ba29	-0.05291191
44	0xbea97eab	-0.33104452
45	0x3db01700	0.08598137
46	0x3f83d7ed	1.030027
47	0xbd316eb4	-0.043318465
48	0x000111f9	9.8283e-41
49	0xbf14f225	-0.58181983
50	0x00011332	9.8721e-41
51	0x3f248d48	0.6427808
52	0x3eaab9e9	0.33344963
53	0x3e589912	0.21152142
54	0x00011247	9.8392e-41
55	0x3ed670e9	0.4188302
56	0xbf283ea5	-0.6572059
57	0x3ef2ee70	0.47447538
58	0x3f25714a	0.6462599
59	0x3ea48475	0.32132307
60	0xbd5e3e9e	-0.054258935
61	0xbe1f4a3a	-0.15555659
62	0x3ee50320	0.44728947
63	0x00011357	9.8773e-41
64	0x0001120f	9.8314e-41
65	0xbdfca540	-0.123362064
66	0xbeffafe8	-0.49938893
67	0xbc5c01a5	-0.013428126
68	0x3f36dba5	0.714289
69	0x3e81e078	0.2536657
70	0x3e9be985	0.304516
71	0x3e2d0a2e	0.16898414
72	0xbe1a8537	-0.1508988
73	0x3edb58a5	0.42841068
74	0x3eccabfe	0.3997497
75	0x3d8ea572	0.0696515
76	0x3f5ecd0b	0.8703162
77	0x3f76f4eb	0.96467465
78	0xbe0c4dd3	-0.13701563
79	0xbeef1870	-0.46698332
80	0xbed8ac91	-0.42319158
81	0x3f7b294e	0.981099
82	0xbef21c9b	-0.4728745
83	0x3e783bce	0.24241564
84	0x00011275	9.8457e-41
85	0xbf1a087f	-0.60169214
86	0x3ed1d32a	0.40981418
87	0xbbb3fedd	-0.0054930286
88	0x3e57e7a6	0.2108446
89	0x3ec12ea6	0.37730902
90	0xbe8726cb	-0.26396784
91	0x3feb696f	1.8391551
92	0xbca17cbf	-0.019712804
93	0xbe8f82e2	-0.28029543
94	0x3ebabc9f	0.3647203
95	0x3f16f3b4	0.5896561
96	0x3e5291a4	0.2056337
97	0xbf71487c	-0.9425123
98	0xbe2e6951	-0.17032363
99	0xbbef931a	-0.007311237
100	0xbe73bc4d	-0.238023
101	0x3e58fb54	0.21189624
102	0xbcbe2f6f	-0.023215977
103	0x3f17c6ea	0.59287894
104	0x3e8e7f79	0.2783163
105	0x3f02f4c9	0.5115476
106	0x3ecc43f5	0.39895597
107	0x3e8297a0	0.25506306
108	0x3d2b321e	0.041795842
109	0x3d992ca0	0.07479215
110	0xbdfc9061	-0.123322256
111	0xbd3de022	-0.046356328
112	0x3ee01a91	0.4377027
113	0xbcb55497	-0.022135062
114	0xbdaeca95	-0.08534733
115	0xbd6d1e78	-0.057890385
116	0xbd44ddc8	-0.04806307
117	0x3ed9b001	0.42517093
118	0xbe66196d	-0.22470637
119	0xbe1f0128	-0.15527785

model.fc2.weight f4 [84, 120]
0	0xbdac7b6d	-0.08421979
1	0xbba4ee6e	-0.005033306
2	0xbb98d936	-0.0046645654
3	0x3c78cac7	0.015185065
4	0x3e16a4b7	0.14711271
5	0xbcb45028	-0.022010878
6	0xbe144717	-0.14480244
7	0x3e09c99a	0.13455811
8	0xbe172774	-0.14761144
9	0xbe092346	-0.13392362
10	0x3ca04e35	0.019568542
11	0xbde76b61	-0.11299778
12	0xbc0a990f	-0.008459344
13	0xbd9a09a8	-0.07521373
14	0x3dabadac	0.08382735
15	0xbdb6b16f	-0.089205615
16	0x3cabe032	0.020980928
17	0x3d82b636	0.0638241
18	0xbcfb1425	-0.030649254
19	0x800112ee	-9.8626e-41
20	0x3e816b97	0.25277397
21	0x800111de	-9.8245e-41
22	0xbeb068d7	-0.34454986
23	0x3c916deb	0.017752608
24	0xbcf2f8d2	-0.029659662
25	0x0001118e	9.8133e-41
26	0x3d54af24	0.05192484
27	0xbc462b39	-0.012095266
28	0x3da59758	0.08085507
29	0x3d1460fb	0.0362253
30	0x800112fa	-9.8643e-41
31	0x000111e6	9.8256e-41
32	0x3bd5c5db	0.0065238304
33	0xbd1dae75	-0.038496453
34	0x3ca93614	0.02065567
35	0xbe1db779	-0.1540202
36	0xbe4a5fb5	-0.19763072
37	0xbdc1d254	-0.09463945
38	0x3d3e8419	0.046512697
39	0xbdc05d03	-0.093927406
40	0x3c9409b2	0.01807103
41	0x3dfcc3eb	0.12342056
42	0x3ea4789c	0.32123268
43	0xbd645627	-0.055746224
44	0xbd7263c9	-0.059177194
45	0xbda00284	-0.0781298
46	0xbe85b11d	-0.2611169
47	0xbdf2ab00	-0.11849022
48	0x80011258	-9.8416e-41
49	0x3c7f1acc	0.015570354
50	0x0001117b	9.8106e-41
51	0xbd4fbc35	-0.050716598
52	0xbdc3210b	-0.09527787
53	0xbd3179af	-0.043328937
54	0x80011496	-9.922e-41
55	0xbdfb0165	-0.12256125
56	0xbe5eb7dc	-0.21749824
57	0xbd092447	-0.033481862
58	0xbe037bbf	-0.12840174
59	0xbd12d9c0	-0.035852194
60	0xbe73de30	-0.23815227
61	0x3c16ff02	0.009216072
62	0x3e1b2a0c	0.15152758
63	0x00011403	9.9014e-41
64	0x80011347	-9.8751e-41
65	0xbd21d417	-0.039508905
66	0x3b8ea140	0.0043527186
67	0xbd3d607b	-0.04623459
68	0xbdaf014d	-0.0854517
69	0xbd012c21	-0.031536225
70	0xbd3c0e5e	-0.04591214
71	0x3d863eac	0.065549225
72	0x3c919eac	0.017775856
73	0x3e642c09	0.22282423
74	0xbcc08d3e	-0.02350485
75	0x3cd6f4e6	0.026239824
76	0x3d77adbe	0.060468428
77	0xbe5dc813	-0.21658354
78	0x3cd30106	0.025757324
79	0x3d188791	0.03723866
80	0xbd0d8754	-0.034552887
81	0xbe2539f2	-0.16135386
82	0xbbcd1721	-0.0062588607
83	0xbdf52fb2	-0.11971988
84	0x0001120a	9.8307e-41
85	0x3e15622d	0.14588232
86	0x3e036f70	0.12835479
87	0x3e1ca80f	0.15298484
88	0x3d1b1d5a	0.03786979
89	0xbdeee479	-0.116646715
90	0x3cc3f140	0.023918748
91	0x3e3639de	0.17795512
92	0xbe3915d6	-0.18074736
93	0x3d1283b3	0.03577013
94	0xbd81b44f	-0.06333219
95	0xbc9f8272	-0.01947138
96	0xbd12e15d	-0.035859454
97	0xbd080a35	-0.03321286
98	0xbdbdae05	-0.09261707
99	0x3cd76345	0.026292453
100	0x3c15db76	0.009146562
101	0xbd069db7	-0.032865252
102	0x3d8847cf	0.066543214
103	0x3cd256a0	0.025676072
104	0xbea3e907	-0.32013723
105	0xbc48011f	-0.012207299
106	0xbbf09bc1	-0.007342786
107	0xbe6a88d6	-0.22903761
108	0xbd804227	-0.062626176
109	0xbe1caa83	-0.1529942
110	0xbe8a964f	-0.270678
111	0x3c679450	0.014134482
112	0xbd1186f0	-0.035529077
113	0x3e8086ff	0.25102994
114	0x3cbf6c30	0.023367018
115	0xbdc5755b	-0.096415244
116	0x3d0df109	0.034653697
117	0x3dc84324	0.09778431
118	0xbd104948	-0.035226136
119	0x3d2a4fa6	0.041579865
120	0xbe031ce3	-0.12803988
121	0xbdb6312c	-0.088960975
122	0x3e8707d7	0.2637317
123	0x3dfcb9cf	0.12340128
124	0xbde03cf1	-0.10949124
125	0x3e0a9b87	0.13535891
126	0x3e05b3f8	0.13056934
127	0xbe2f77a2	-0.1713548
128	0xbe8db3d9	-0.27676275
129	0xbc0d8879	-0.008638495
130	0xbd003d6e	-0.031308584
131	0x3b7dca96	0.0038725487
132	0xbe2ed652	-0.17073944
133	0x3de49f93	0.11163249
134	0x3da27fa6	0.07934503
135	0xbc5be004	-0.013420109
136	0xbde1360c	-0.10996637
137	0xbe5db799	-0.21652068
138	0x3e323f9d	0.17407079
139	0x00011406	9.9019e-41
140	0xbcb13676	-0.021632414
141	0x8001130c	-9.8668e-41
142	0xbe8184e4	-0.252967
143	0x3e9300d9	0.28711584
144	0xbdbe6c1f	-0.09297966
145	0x80011329	-9.8709e-41
146	0x3da059a0	0.078295946
147	0xbe120fb8	-0.14263809
148	0xbe08f587	-0.13374911
149	0x3d6874df	0.056752082
150	0x800113cb	-9.8936e-41
151	0x00011396	9.8862e-41
152	0xbe2ac4e7	-0.16676675
153	0x3df7a364	0.12091711
154	0xbd8a16de	-0.06742643
155	0x3e9eddc3	0.31028566
156	0x3e8f52d6	0.27992886
157	0x3d025123	0.03181566
158	0x3e04540b	0.12922685
159	0x3d8f246f	0.06989371
160	0x3da4e276	0.080510065
161	0xbd8ef636	-0.06980555
162	0xbd95f05e	-0.07321237
163	0x3e159966	0.14609298
164	0xbb374db4	-0.0027969899
165	0x3e0c038e	0.13673231
166	0x3cfb1f38	0.030654535
167	0xbe2f84dc	-0.17140526
168	0x800113f8	-9.8999e-41
169	0xbd83f74e	-0.06443654
170	0x00011197	9.8146e-41
171	0x3daa0dcf	0.08303415
172	0x3e4533ab	0.19257991
173	0x3a865c8a	0.0010250967
174	0x8001149e	-9.9232e-41
175	0xbe20ce0e	-0.15703604
176	0xbe8fc464	-0.28079522
177	0xbe946c18	-0.2898872
178	0x3e3302a3	0.17481475
179	0x3e91a958	0.28449512
180	0x3d4c217c	0.04983662
181	0xbe6d1973	-0.2315424
182	0x3c8d32c1	0.017236115
183	0x80011269	-9.844e-41
184	0x000113e9	9.8978e-41
185	0xbdf28433	-0.11841621
186	0xbd4c756a	-0.049916662
187	0x3e2ab9ea	0.16672483
188	0x3de58436	0.11206858
189	0x3dcddaae	0.100514755
190	0xbbe397bb	-0.006945578
191	0x3e0ae178	0.13562572
192	0xbe91685f	-0.2839994
193	0x3de9a4d7	0.11408394
194	0xbd951e1c	-0.072811335
195	0xbe9619a5	-0.2931644
196	0x3d44043f	0.047855612
197	0x3dacba2a	0.084339455
198	0x3e4cf22b	0.20014255
199	0xbd49a795	-0.049232084
200	0x3c6ec353	0.014572936
201	0x3dd1491a	0.10219021
202	0xbc5adc47	-0.013358182
203	0x3bb84e95	0.005624602
204	0x800111c3	-9.8207e-41
205	0xbe2b21af	-0.16712068
206	0x3a50a348	0.0007958901
207	0xbdb92e23	-0.09042003
208	0xbe11c2ec	-0.14234513
209	0x3dfde4a2	0.12397124
210	0xbe56e71c	-0.20986599
211	0x3d973754	0.073836
212	0xbdcebc81	-0.10094548
213	0xbd6fa516	-0.058507048
214	0x3c270dac	0.010196131
215	0x3e06ba99	0.13157119
216	0xbd022f25	-0.03178324
217	0xbe583860	-0.21115255
218	0xbda7f8db	-0.08201762
219	0xbabc84b5	-0.0014382811
220	0x3de0ec79	0.109826036
221	0xbe014e6e	-0.12627575
222	0xbe59feed	-0.21288653
223	0xbe2ec06d	-0.17065592
224	0x3da0bef0	0.078489184
225	0xbe23c37c	-0.1599254
226	0x3e28666d	0.16445322
227	0xbe3d9601	-0.18514253
228	0xbcf0f881	-0.02941537
229	0xbd6045f0	-0.054754198
230	0x3d1e444c	0.03863935
231	0x3cccbe84	0.024993189
232	0x3e230db7	0.159232
233	0xbd3c97d6	-0.04604324
234	0xbdf911c2	-0.1216159
235	0xbdf36d8d	-0.118861295
236	0x3e0c5aeb	0.13706557
237	0x3e09e7e7	0.1346737
238	0xbe120f5a	-0.14263669
239	0xbd718e07	-0.05897334
240	0x3e438a8d	0.19095822
241	0xbe692e3f	-0.22771548
242	0x3e019f69	0.12658466
243	0xbe2fedb4	-0.1718052
244	0xbc8afea1	-0.01696712
245	0xbdf84e8c	-0.121243566
246	0xbdab707a	-0.083710626
247	0xbddccff9	-0.10781855
248	0xbdd2f85e	-0.103012785
249	0xbc384b3b	-0.011248405
250	0xbdbaa130	-0.09112775
251	0x3e183338	0.14863288
252	0xbe1205b2	-0.14259985
253	0xbc6f57bd	-0.014608321
254	0x3e003b49	0.12522615
255	0x3cfe9d2d	0.031080807

model.fc2.bias f4 [84]
0	0x3f2c1e5e	0.67233837
1	0x3f3b795f	0.7323207
2	0x3e78a4ab	0.24281566
3	0xbe0078ec	-0.12546128
4	0x3e3dbc1f	0.18528794
5	0x3c5f76ca	0.013639161
6	0xbd889962	-0.066698804
7	0x00011322	9.8699e-41
8	0x3ef57e59	0.47947958
9	0x3f1e2c17	0.61786026
10	0x000113f5	9.8995e-41
11	0x3e960910	0.2930379
12	0x3dcd2650	0.10017073
13	0xbf195133	-0.59889525
14	0x3e610393	0.2197402
15	0x3dd62158	0.104555786
16	0x3eced298	0.40395045
17	0x3e095d2d	0.1341445
18	0x3eea6cb5	0.45786062
19	0x3f2b3fa4	0.6689398
20	0x3f008549	0.50203377
21	0x3f43d68b	0.7649924
22	0x3f4a736b	0.79082364
23	0x3f05937e	0.5217818
24	0xbf093763	-0.5360014
25	0x3ee64ddb	0.44981274
26	0x3f052ee8	0.520247
27	0x3ea56a81	0.3230782
28	0x3c5add35	0.013358404
29	0x3ed1fb2f	0.4101195
30	0x3e5f6bf3	0.21818523
31	0xbf40b994	-0.7528317
32	0x00011429	9.9068e-41
33	0xbdd993b9	-0.10623879
34	0x3e80b664	0.25139153
35	0x00011305	9.8658e-41
36	0x3f458b8c	0.77166057
37	0x3dd9aeb2	0.106290236
38	0x3f099b6d	0.53752786
39	0x3dde2592	0.1084701
40	0x3f0421b1	0.5161391
41	0x800112a6	-9.8525e-41
42	0x3eb2027f	0.3476753
43	0x3f213022	0.6296407
44	0x3f29c1c5	0.66311294
45	0x3e85b22d	0.261125
46	0x3f20f9bd	0.6288107
47	0x3eee6099	0.46558073
48	0x3ddc95ee	0.10770784
49	0x3e60dec2	0.21959975
50	0x3ed03c46	0.40670985
51	0x3edc8a82	0.43074423
52	0x3f36c460	0.71393394
53	0x3f4de0fd	0.8042143
54	0x3ec57acb	0.38570246
55	0x3dff4e66	0.12466125
56	0x3f7d857f	0.99031824
57	0x3f264668	0.6495118
58	0x3e758115	0.23975022
59	0x3ee74dd4	0.45176566
60	0x3df8fe76	0.121579096
61	0xbd26db88	-0.040736705
62	0x3eb6d93b	0.3571261
63	0xbd61e4e2	-0.05514992
64	0x3ef386fd	0.47563925
65	0x3ebfc238	0.37452865
66	0x3e97c133	0.29639587
67	0xbed40644	-0.4141103
68	0x3ed406e1	0.41411498
69	0x0001137c	9.8825e-41
70	0x3e8b81f5	0.27247587
71	0x3f744b1d	0.95427114
72	0x3f2a540c	0.66534495
73	0xbe1b8e42	-0.15190986
74	0xbdeb40b7	-0.11486953
75	0x3f4e3578	0.80550337
76	0x3b16d0c5	0.002301262
77	0x3ee933a5	0.45547214
78	0x3e8d768c	0.27629507
79	0x3f6073a2	0.8767644
80	0xbf3c0300	-0.7344208
81	0x3ee57d55	0.44822183
82	0x3e9ad3d8	0.3023975
83	0x3e8c6c59	0.27426413

model.fc3.weight f4 [10, 84]
0	0xbea6d394	-0.32583296
1	0x3e174080	0.14770699
2	0xbe0d595e	-0.13803622
3	0xbeecd23b	-0.46254143
4	0x3ddbba02	0.107288375
5	0x3e51c967	0.20486985
6	0x3db8afd4	0.090179116
7	0x0001123c	9.8377e-41
8	0x3e13ec5f	0.14445637
9	0xbda57f5d	-0.08080933
10	0x000111d0	9.8225e-41
11	0xbcc2648e	-0.023729589
12	0xbe0b8fab	-0.13629024
13	0x3e1fd7ac	0.15609616
14	0x3d6db1a6	0.058030747
15	0x3ebe2f33	0.37145385
16	0xbd3a018d	-0.045411635
17	0xbe1b65d6	-0.15175566
18	0x3cadde9d	0.021224314
19	0xbe92d2f1	-0.2867656
20	0xbe94f801	-0.29095462
21	0x3e8589b5	0.26081625
22	0xbe2b3c83	-0.16722302
23	0xbe49dd97	-0.19713436
24	0xbdc87f6f	-0.09789931
25	0x3de06a45	0.10957769
26	0x3d5fe5c8	0.054662496
27	0x3e295d5d	0.16539522
28	0x3e225cfd	0.15855785
29	0xbe68aad9	-0.22721423
30	0xbdfed2d3	-0.12442555
31	0x3ece72e7	0.4032204
32	0x000113ff	9.9009e-41
33	0x3db65925	0.08903722
34	0x3d6aecbe	0.05735468
35	0x800113ab	-9.8891e-41
36	0x3df7ebe4	0.121055394
37	0xbdaff72a	-0.08592065
38	0xbe5c6df6	-0.21526322
39	0x3e1a803c	0.1508798
40	0xbee82cda	-0.4534672
41	0x8001133d	-9.8737e-41
42	0x3ea24e46	0.31700343
43	0x3d38f23b	0.045152884
44	0x3c51b5b8	0.012799673
45	0xbe0a0116	-0.13476977
46	0xbe8fe988	-0.28107858
47	0x3c8f66f3	0.017505145
48	0xbd97ff97	-0.07421797
49	0x3e9a3ada	0.30123025
50	0xbd4cf809	-0.050041232
51	0xbeb156ba	-0.3463648
52	0xbe20d3c9	-0.1570579
53	0xbea4c29a	-0.3217972
54	0xbe6ed1d7	-0.23322235
55	0x3e6dc4bf	0.23219584
56	0x3e1b4920	0.15164614
57	0x3e12994d	0.14316292
58	0x3e05b9a9	0.13059105
59	0x3cac4674	0.021029688
60	0x3e0b033f	0.13575457
61	0x3c51bd56	0.012801489
62	0xbc27ca64	-0.010241125
63	0x3d85f16f	0.065401904
64	0x3e40747c	0.18794435
65	0xbe77f573	-0.24214725
66	0x3c231086	0.00995267
67	0x3e8cdcec	0.275123
68	0xbe6b2792	-0.22964314
69	0x8001122a	-9.8352e-41
70	0xbd57e4a1	-0.052708272
71	0x3e46b5c1	0.19405271
72	0xbe072776	-0.13198647
73	0x3e21e3ec	0.15809602
74	0x3f007b94	0.50188565
75	0xbecebf27	-0.40380213
76	0xbced3622	-0.028956477
77	0xbe05b8c8	-0.1305877
78	0x3e4e8f87	0.20171939
79	0xbe13ddb8	-0.14440048
80	0xbe16f9db	-0.1474375
81	0xbe4769e3	-0.19473986
82	0xbe8e164a	-0.2775138
83	0x3d04f762	0.032462485
84	0xbc6c5ec3	-0.01442689
85	0xbcfae2ca	-0.03062572
86	0xbc3150a9	-0.010822454
87	0x3d4e6d10	0.05039698
88	0x3d7da201	0.061922077
89	0xbe47487b	-0.19461243
90	0x3e8f187f	0.27948377
91	0x8001120c	-9.831e-41
92	0xbdbaffcb	-0.0913082
93	0x3befed7e	0.0073220124
94	0x800111f5	-9.8277e-41
95	0x3e2bfa45	0.16794689
96	0x3d43bfc7	0.047790315
97	0x3dcb1a73	0.09917154
98	0xbe84849a	-0.25882417
99	0xbc42ca51	-0.011889056
100	0xbd5decc4	-0.054180875
101	0xbcd93224	-0.026513167
102	0x3e383115	0.17987473
103	0x3b895986	0.00419158
104	0x3db929df	0.090411894
105	0x3db7b7f5	0.08970634
106	0xbe110ee3	-0.14165835
107	0x3cad24ea	0.021135766
108	0x3e109a00	0.14121246
109	0xbedf7995	-0.43647447
110	0xbcaf8296	-0.021424573
111	0x3d2d9361	0.04237688
112	0xbc1add5a	-0.009452188
113	0x3daf5c18	0.08562487
114	0xbdda129b	-0.1064808
115	0x3f029882	0.5101396
116	0x000113ec	9.8982e-41
117	0xbe841084	-0.2579385
118	0x3d42f8d2	0.047600575
119	0x800111b0	-9.818e-41
120	0xbf06efb7	-0.52709526
121	0xba1a59f9	-0.0005888041
122	0xbe52f41a	-0.2060093
123	0xbe35e964	-0.17764813
124	0x3e1485c8	0.14504158
125	0x800113f4	-9.8993e-41
126	0xbe673ebc	-0.22582525
127	0x3e8e9389	0.27846935
128	0x3ce2c075	0.027679661
129	0x3cf2c4c5	0.029634843
130	0xbe25e9ed	-0.16202517
131	0x3d8fea28	0.07027084
132	0x3c902878	0.017597422
133	0x3e0176c1	0.12642957
134	0x3e281a79	0.16416349
135	0xbdea92c1	-0.11453772
136	0xbee6c21f	-0.45069978
137	0xbed59099	-0.41711882
138	0x3e6742e9	0.22584118
139	0xbc349e21	-0.011024029
140	0x3eabc5d7	0.33549377
141	0x3d819a0b	0.063282095
142	0xbe4d0932	-0.20023039
143	0xbd446359	-0.047946308
144	0x3e9672ad	0.29384366
145	0x3d1036bd	0.035208452
146	0x3dd20be5	0.10256175
147	0x3e938347	0.28811094
148	0xbc686c53	-0.014185983
149	0x3e2a18f3	0.1661108
150	0x3dc39944	0.095507175
151	0xbdae26bc	-0.08503482
152	0xbe075201	-0.13214876
153	0x00011366	9.8794e-41
154	0xbe070a47	-0.13187514
155	0x3e01aa4f	0.12662624
156	0xbefe9dff	-0.49729916
157	0x3d580a6e	0.05274432
158	0xbdc93375	-0.09824268
159	0x3df39dc3	0.11895325
160	0xbd899fb5	-0.06719915
161	0xbee5897a	-0.4483145
162	0x3d9bf269	0.076145954
163	0xbe40dd7f	-0.18834494
164	0x3f25ccf8	0.6476588
165	0x3e47bb96	0.19505152
166	0xbdf68824	-0.120376855
167	0xbebbee40	-0.36705208
168	0xbd4cedeb	-0.050031584
169	0xbbcc6a56	-0.006238262
170	0x3e7792c8	0.24177086
171	0x3e511960	0.20419836
172	0xbe1585fe	-0.14601895
173	0x3e49a502	0.19691852
174	0xbe8a50b9	-0.27014711
175	0x80011327	-9.8706e-41
176	0x3e7ad632	0.24495772
177	0xbe259696	-0.16170725
178	0x800112f6	-9.8637e-41
179	0xbdc121e6	-0.09430294
180	0x3eeb7011	0.45983937
181	0x3e4c3ef7	0.19945894
182	0xbe0d0480	-0.13771248
183	0xbdf0badb	-0.1175439
184	0xbd2974d9	-0.0413712
185	0x3e108e13	0.14116697
186	0xbe8ac859	-0.27105978
187	0x3e2284da	0.15870991
188	0x3e38a860	0.1803298
189	0xbe293fe8	-0.16528285
190	0xbecdfeb3	-0.40233383
191	0xbe41304c	-0.1886608
192	0xbe03ab33	-0.12858276
193	0x3dba787d	0.091050126
194	0xbe9334f5	-0.2875134
195	0xbdf34916	-0.118791744
196	0x3c66bb51	0.014082746
197	0x3e7c54f0	0.24641776
198	0x3c9d9a1d	0.019238526
199	0xbc8b1f02	-0.01698256
200	0x8001138f	-9.8852e-41
201	0x3e9be50c	0.30448186
202	0xbe8810bd	-0.2657527
203	0x800114a2	-9.9237e-41
204	0xbe54f72d	-0.20797415
205	0x3e40fcba	0.18846408
206	0xbe93d0ff	-0.2887039
207	0x3e204705	0.15652092
208	0xbc61f51f	-0.013791352
209	0x800112a0	-9.8517e-41
210	0xbe1d4cdc	-0.15361351
211	0xbe0b7a5c	-0.13620895
212	0x3d2934d6	0.041310154
213	0x3e99aa5d	0.3001279
214	0xbdeaa093	-0.11456408
215	0xbe3dc9b2	-0.18533972
216	0xbe785676	-0.24251732
217	0xbe20ffe9	-0.15722622
218	0xbe452d26	-0.19255504
219	0xbdb743b6	-0.08948462
220	0x3e5b2976	0.21402535
221	0x3b9e490e	0.004830486
222	0xbdcc2dcb	-0.09969672
223	0xbd8425b3	-0.06452503
224	0xbede4ef9	-0.43419626
225	0x3dd71de8	0.10503751
226	0x3d54696d	0.051858354
227	0xbeba99ce	-0.3644547
228	0x3e604b7a	0.21903792
229	0x3ee8e67b	0.45488343
230	0xbe223bc9	-0.15843119
231	0xbb93312c	-0.0044919457
232	0xbe2e971c	-0.17049831
233	0x3d927239	0.071506925
234	0xbe8a4ef7	-0.2701337
235	0xbeab0e78	-0.33409476
236	0x3df60fb1	0.12014712
237	0x00011217	9.8325e-41
238	0x3ecdf2e0	0.4022436
239	0xbdfc6e53	-0.1232573
240	0x3e352be3	0.17692523
241	0xbb06716a	-0.0020514377
242	0x3e0547f5	0.1301573
243	0x3dbb49f5	0.091449656
244	0x3d5857ff	0.052818295
245	0xbcc9fdfa	-0.024657238
246	0xbca6c1c2	-0.020356063
247	0x3e0eaa25	0.13932092
248	0x3d961f60	0.07330203
249	0x3e22909e	0.1587548
250	0x3e79054c	0.24318427
251	0x3d9ac2fa	0.0755672
252	0x3e293be2	0.1652675
253	0x3d527d4f	0.051389035
254	0xbe4aacac	-0.19792432
255	0x3e21d48f	0.15803741

model.fc3.bias f4 [10]
0	0xbd95c1a8	-0.073123276
1	0xbe08e652	-0.1336911
2	0xbe439dc3	-0.1910315
3	0x3e18b7f0	0.14913917
4	0x3e832986	0.25617617
5	0xbe1003b3	-0.14063911
6	0x3b2e0bef	0.0026557406
7	0xbdbcb34d	-0.092138864
8	0x3e854a30	0.26033163
9	0x3e0e5881	0.13900949

model.sequntial.0.weight f4 [6, 3, 3, 3]
0	0xbe3ae6f6	-0.18252167
1	0xbea9367c	-0.3304938
2	0xbe96c876	-0.29449815
3	0x3e04d85e	0.12973163
4	0x3d88f4f0	0.06687343
5	0xbe09905b	-0.13433973
6	0x3e9e2467	0.30887148
7	0x3e86238d	0.26198998
8	0x3f0ae23e	0.5425147
9	0xbd45081d	-0.04810344
10	0x3e498202	0.196785
11	0x3d9631d5	0.073337235
12	0xbc9c1591	-0.019053252
13	0x3e00dec3	0.12584977
14	0x3d4820ac	0.048859283
15	0xbe41efe1	-0.18939163
16	0xbe00331a	-0.12519494
17	0xbe14becb	-0.14525907
18	0x3e0f8f59	0.14019527
19	0x3e26362e	0.16231605
20	0x3e10980a	0.14120498
21	0xbb8b0da2	-0.0042435685
22	0x3d9bac9e	0.076012835
23	0x3e8ba2ec	0.27272737
24	0xbe63ddaf	-0.22252534
25	0xbe3a89c5	-0.18216617
26	0xbdd8ed84	-0.105921775
27	0xbdef710a	-0.11691482
28	0x3e7b37e3	0.24533038
29	0xbde9adc8	-0.11410099
30	0x3da99e09	0.08282096
31	0xbf02eb90	-0.5114069
32	0xbd55767f	-0.05211496
33	0xbca53321	-0.020165982
34	0x3e022c03	0.12712102
35	0x3e8de3d6	0.27712888
36	0x3e067780	0.13131523
37	0x3ea44889	0.3208659
38	0xbd4601fb	-0.048341732
39	0x3d0fd7bf	0.03511786
40	0xbe83b039	-0.25720385
41	0xbe49f524	-0.1972242
42	0xbd6df2ee	-0.058093004
43	0x3e34fea0	0.17675257
44	0x3d34988e	0.0440908
45	0xbdf100e3	-0.11767747
46	0x3e3e140b	0.18562333
47	0x3d5b43fc	0.05353163
48	0x3de39e32	0.11114158
49	0xbea874f9	-0.32901743
50	0xbe392fd5	-0.18084653
51	0xbd6cfaaa	-0.05785624
52	0x3b49d7bf	0.003079876
53	0x3e800037	0.25000164
54	0x3e432a1f	0.19059037
55	0xbc8e5ef8	-0.017379269
56	0xbe124082	-0.1428242
57	0x3d09992e	0.03359335
58	0x3e54e0da	0.20788899
59	0xbe72560e	-0.2366564
60	0xbe04e6cf	-0.12978671
61	0xbe40c491	-0.18824984
62	0x3eb9bd5e	0.36277288
63	0x3e0082e6	0.12549934
64	0x3d4e89c3	0.05042435
65	0xbe044954	-0.12918597
66	0x3df3eb0e	0.119100675
67	0xbc92fff1	-0.017944308
68	0xbdb2d236	-0.08731501
69	0xbee11cbb	-0.43967232
70	0xbd75f8a8	-0.06005159
71	0x3ea10896	0.31451863
72	0x3eace412	0.33767754
73	0xbe06ba06	-0.131569
74	0xbea98f3a	-0.33117086
75	0xbdf6038d	-0.12012396
76	0x3d23f401	0.040027622
77	0x3d991396	0.07474439
78	0xbdc2b7e4	-0.095077306
79	0x3e080524	0.13283211
80	0x3e1a15b6	0.15047345
81	0xbc36beb7	-0.011153868
82	0x3d01d279	0.031694863
83	0xbcd71875	-0.02625678
84	0x3dcb1f69	0.099181004
85	0xbe71fc35	-0.23631366
86	0x3df2b4d9	0.118509
87	0x3d7629a1	0.060098294
88	0xbe5dc619	-0.216576
89	0x3e44ccf5	0.1921881
90	0x3e2361d6	0.1595529
91	0xbe9d0449	-0.30667332
92	0x3e1c1e2d	0.15245886
93	0x3e4a6aae	0.19767258
94	0xbea3c85d	-0.31988803
95	0x3e1a24e4	0.15053135
96	0x3e4a7eb4	0.19774896
97	0xbebc31d3	-0.36756763
98	0x3dec85ca	0.11548956
99	0x3d778841	0.060432676
100	0xbe4106f5	-0.1885031
101	0x3dabb14b	0.08383425
102	0x3e15a4d8	0.14613664
103	0xbe875cc9	-0.26437977
104	0x3e310039	0.17285241
105	0x3dd77319	0.1052
106	0xbe85e57a	-0.2615164
107	0x3e21ba24	0.15793663
108	0x3e8ce1c2	0.2751599
109	0x3e42cbec	0.19023103
110	0x3e398b0b	0.18119447
111	0x3e18b407	0.14912425
112	0x3e923c7f	0.2856178
113	0x3d3535ba	0.04424069
114	0xbe91c39b	-0.28469548
115	0xbe70a9dd	-0.23502298
116	0xbdb736e4	-0.089460164
117	0xbda6c5ca	-0.08143194
118	0x3dac00d5	0.08398596
119	0xbdd9901a	-0.10623188
120	0xbe84101a	-0.25793535
121	0x3b7abfaf	0.0038261225
122	0x3ea1b555	0.31583658
123	0xbf02073c	-0.5079229
124	0xbf00f3eb	-0.5037219
125	0xbe0b0e5c	-0.13579696
126	0x3bc4b896	0.0060034497
127	0xbe26a26c	-0.16272897
128	0xbdac44e5	-0.08411578
129	0x3a0c4ec8	0.00053523155
130	0x3e4afc7d	0.19822879
131	0x3dd2faa0	0.10301709
132	0x3d754a9b	0.059885602
133	0x3da20df4	0.079128176
134	0xbd06e9a8	-0.032937676
135	0x3e76d8d6	0.24106154
136	0xbdc65113	-0.096834324
137	0x3e2f5972	0.17123964
138	0xbd3146ef	-0.04328054
139	0xbebbb869	-0.3666413
140	0x3e3abad5	0.18235333
141	0xbe55676c	-0.20840234
142	0xbe52fae3	-0.20603518
143	0xbe6016c5	-0.21883686
144	0xbd51e129	-0.05124012
145	0x3c28c57f	0.010300993
146	0xbd63623c	-0.055513605
147	0x3e25ea78	0.16202724
148	0x3e75dcfb	0.24010079
149	0xbd61b67b	-0.055105668
150	0x3d3d9cd4	0.04629214
151	0xbdc1f3f4	-0.094703585
152	0xbde655e5	-0.11246852
153	0xbead7a24	-0.33882248
154	0x3e45ea14	0.19327575
155	0xbebbe197	-0.3669555
156	0x3dda0aae	0.10646568
157	0x3e8333ce	0.2562546
158	0x3e316eac	0.17327374
159	0x3d0d70c2	0.034531362
160	0x3ebc0cc7	0.36728498
161	0x3e027578	0.12740123

model.sequntial.0.bias f4 [6]
0	0x3aca094c	0.0015414148
1	0xbbecd8c6	-0.00722799
2	0xbb8ba018	-0.004261028
3	0xbac5a563	-0.0015079196
4	0xba8b420f	-0.0010624545
5	0xbb8549d2	-0.004067638

model.sequntial.1.weight f4 [6]
0	0x3f6776f0	0.9041586
1	0x3f799d80	0.9750595
2	0x3f4b7c0e	0.7948617
3	0x3fa47eb2	1.2851164
4	0x3f813b25	1.0096174
5	0x3f449477	0.7678904

model.sequntial.1.bias f4 [6]
0	0x3e18470b	0.1487085
1	0xbdc255b2	-0.09489001
2	0xbe2260dc	-0.15857261
3	0xbdd87ac7	-0.10570293
4	0x3dda51af	0.10660111
5	0x3e20a0a2	0.15686277

model.sequntial.1.running_mean f4 [6]
0	0xbdb85969	-0.09001429
1	0xbc87dc2f	-0.016584484
2	0xbbb12042	-0.0054054568
3	0xbc7c471e	-0.015397815
4	0x3df3beac	0.11901602
5	0xbc2eff32	-0.0106809605

model.sequntial.1.running_var f4 [6]
0	0x3ed7666e	0.42070335
1	0x3e60df21	0.21960117
2	0x3e33cac0	0.17557812
3	0x3ed82379	0.42214563
4	0x3f896293	1.0733207
5	0x3e4916df	0.19637631
