weights/basic_cnn_c10.pth (torch, 334570 bytes, 36 tensors)

model.conv1.weight f4 [6, 3, 3, 3]
00000000: 6e5e e4bd 7571 c1be cd55 95be 417b c93d
00000010: fd62 c33d 1818 eebd ce4c a73e 224b 6d3e
00000020: ebe4 0b3f d5a8 893d 42ff 493e 1943 8abc
00000030: c7f4 fbbc b85a 653e 7d73 9cbc 0f07 6bbe
00000040: cf4f 05be 6c63 4cbe 2a0b 513e 48ad 063e
00000050: 0b0f ea3c bfb7 dfbc d172 193e ef00 653e
00000060: 7df7 27be d12a 19be 7993 ebbd 4b0f c9bd
00000070: f1b4 6f3e b8ae 05be 7f76 333d 398a 05bf
00000080: 82c7 5dbd 50cb 36bc f485 183e 782e 983e
00000090: 6c74 243e 5f3d a03e 9071 18bd 2710 baba
000000a0: 1aaf 86be 2c03 50be be27 1fbd d2f2 3f3e
000000b0: 99d9 473d 939d e2bd eca7 3b3e bde0 8d3d
000000c0: 4df8 a33d acb7 a4be daab 3dbe b460 38bd
000000d0: 8361 043c d821 6f3e e886 2c3e ff56 f73b
000000e0: 22e0 1bbe 08a0 0e3d 0968 193e 0d78 45be
000000f0: ace6 0bbe db09 36be 0b08 b53e 7a19 fd3d
00000100: 9280 943d 671f 29be 9c7c 123e fbf5 89bd
00000110: 160f 5cbd 625b d9be d903 edbc 3dec 9b3e
00000120: 7f0d c13e 15b4 cfbd d4e2 bebe 1bb4 d3bd
00000130: 288d aabb eb7f d03d 2058 11be ae86 043e
00000140: 2740 293e 90fb 05bd 95da ff3c b767 9fbc
00000150: 0964 be3d d3b0 75be a1b9 0b3e a9b9 8c3d
00000160: 8f13 60be da86 413e 8cb5 263e 52cc 92be
00000170: 560e 183e 6099 4d3e 1b23 a4be 2973 0e3e
00000180: 918c 543e 6be4 bcbe 498a d53d 69af 733d
00000190: c0d3 42be 6cbb a03d c39b 203e 07d1 8abe
000001a0: e739 383e da0a f13d 3c10 8ebe ba70 233e
000001b0: d9fe 863e 18d6 4a3e 807c 323e 8d8f 8a3d
000001c0: fd60 823e 7d42 1b3d c24b 85be a415 88be
000001d0: 355e 80bc bd99 e7bd 69c7 e73d e561 08be
000001e0: acee 97be 8792 123d 0c03 a03e b915 ddbe
000001f0: e220 06bf b090 04be 20ba dabc 8c5a 3ebe
00000200: 47bd fcbd e2a2 983c f48e 753e 217d 143e
00000210: e6c8 063e fa9b 7f3d a7d9 44bd 67f6 533e
00000220: 3ea5 debd 5d88 1d3e 1cff 83bd 0b76 ccbe
00000230: 76be 233e 0ed5 2bbe 5f96 21be 0410 5cbe
00000240: 1068 88bd 5ea5 3d3d 414f 20bb 4f31 123e
00000250: 1d34 6c3e c8d1 37bc 4360 3f3c 8e6e f8bd
00000260: a4c5 11be 7c0f 9ebe ddad 7d3e a067 ccbe
00000270: b0a2 0d3e 043d 933e c39f 2b3e 83b5 083d
00000280: a1fc c13e dd9f 803d
-0.111508235 -0.37781873 -0.29167023 0.09837962 0.09540365 -0.11625689 0.32675785 0.23173192
0.54646176 0.06721655 0.1972628 -0.016877698 -0.030756367 0.22397888 -0.019098038 -0.22951911
-0.13018726 -0.19959801 0.20414415 0.13152039 0.028571626 -0.027309297 0.14985205 0.22363637
-0.16403003 -0.1495774 -0.115027376 -0.0981737 0.23408867 -0.13054931 0.04381418 -0.52164036
-0.054145344 -0.011156872 0.14894849 0.29722953 0.16060036 0.31296822 -0.037217677 -0.0014195488
-0.26305467 -0.2031371 -0.03885626 0.18744972 0.0487915 -0.11065211 0.18325776 0.06927631
0.08006344 -0.3217138 -0.18522587 -0.0450141 0.008079889 0.23352754 0.16848338 0.0075482125
-0.15222219 0.034820586 0.14981093 -0.19284077 -0.13662213 -0.17777197 0.353577 0.12358375
0.07251085 -0.16515885 0.14305347 -0.0673637 -0.053725325 -0.42452532 -0.028932499 0.30453673
0.3770561 -0.1014177 -0.3728243 -0.10337087 -0.0052048154 0.101806484 -0.14193773 0.12942001
0.16528378 -0.03271061 0.031232158 -0.019458635 0.09296424 -0.23993234 0.1364503 0.06871349
-0.21882461 0.18899098 0.16280192 -0.2867151 0.14849219 0.20078039 -0.32058033 0.13911118
0.20756747 -0.3689302 0.104267664 0.059493456 -0.19026089 0.07848248 0.15684418 -0.271126
0.17990838 0.11769648 -0.2774676 0.1596097 0.26366308 0.19808233 0.17430305 0.067656614
0.2546462 0.037905205 -0.2603436 -0.2657901 -0.015669921 -0.1130862 0.11317331 -0.13318594
-0.2967428 0.03578427 0.31252325 -0.43180636 -0.52393925 -0.12945819 -0.02670008 -0.18589228
-0.12340789 0.018632356 0.23980314 0.14500858 0.13162574 0.06240461 -0.048059132 0.20699464
-0.10871361 0.1538405 -0.064451426 -0.3993381 0.15990624 -0.16780493 -0.15780018 -0.21490484
-0.06660473 0.046300285 -0.0024461302 0.14276622 0.23066755 -0.011219449 0.011680665 -0.12130462
-0.1423555 -0.3087119 0.24773355 -0.3992281 0.13831592 0.2875749 0.16760163 0.033376228
0.37888053 0.062804915

model.conv1.bias f4 [6]
00000000: e79d 26ba 256d a7bb 295e 81b7 20ba c33a
00000010: 02da b53a 1639 e3b9
-0.0006355927 -0.0051094466 -1.5421845e-05 0.0014932789 0.0013874175 -0.00043339346

model.batchnorm_1.weight f4 [6]
00000000: 2b68 673f 70e3 803f 058e 4d3f 8bf3 ab3f
00000010: 3d0f 7c3f 294d 413f
0.9039332 1.0069408 0.8029483 1.3433698 0.9846075 0.7550836

model.batchnorm_1.bias f4 [6]
00000000: 91b9 2b3e 4562 acbd abcc 10be 69e0 e8bd
00000010: 56d8 103e 549d 383e
0.16770007 -0.08417181 -0.14140575 -0.11370928 0.14145026 0.18028766

model.batchnorm_1.running_mean f4 [6]
00000000: 4ed6 b1bd c62a 86bc 5667 16ba a0a4 57bc
00000010: 550c f33d 9fb4 b8bb
-0.086834535 -0.016377818 -0.0005737444 -0.013161808 0.118675865 -0.005636766

model.batchnorm_1.running_var f4 [6]
00000000: 0f77 cb3e 80c8 823e 4b17 423e d85f da3e
00000010: 0e88 6b3f 591a 643e
0.39739272 0.25543594 0.18954198 0.42651248 0.9200448 0.22275676

model.conv2.weight f4 [16, 6, 3, 3]
00000000: 9291 c5bd 6280 dabd 9430 07be d216 acbd
00000010: 2343 0dbe 6469 53be 4d6d 2bbe e827 41be
00000020: 8b5d 01be f5b9 d03b e546 dc3e 8be6 8d3d
00000030: 9307 c63e e10d 5fbe 5de9 cc3e 0ef0 883e
00000040: 0ffb 7d3d c4d1 393e d2ba 88bc fc34 183e
00000050: 7258 703e 9f7d a53d 4d49 953c 82aa 703e
00000060: b29d da3d 776d 933e 0bb4 bf3d d283 0dbe
00000070: a05c 81bd 513b 43bd 532e b5bc 94e4 1abe
00000080: 8b9a ae3d 923e de3d e89d 6e3e 18d1 80bd
00000090: 1450 f8bd f6b3 23be 58be b8bd d6a1 44be
000000a0: 5e05 1abe 5bfd d2bb 44d1 01be aeb3 93bd
000000b0: c7ee 39bc 4efb 1f3e 386e 22be b4a1 5cbe
000000c0: a4d4 13be bad2 03be 8a78 5fbd f739 84be
000000d0: e58b 6abd 1313 cc3d 84d6 ecbb db7f cfbd
000000e0: 6ffd 073d b668 d93d 2294 ba3b 8740 953e
000000f0: 5c02 2d3d 9d87 bdbc 935b a03d efd5 833e
00000100: a70e b53c b649 403e 0bdc 8a3e ad85 fa3d
00000110: 0f85 5b3e ee9e 463d 40fd 2b3e e126 93bd
00000120: a440 c1bd 7962 03bd 4894 93bd 90d7 563b
00000130: 8e83 94bd 7a04 52be 9254 c93d 6180 b5bd
00000140: b8e4 31be 8d73 8bbe 8413 a9be 9ebf 2cbe
00000150: 2f7d e1be 4b7b 28bf 9b33 e9be 3bfe debe
00000160: 90f7 36bf 2474 f8be db14 993d 28be 9d3d
00000170: 2082 283e 5a74 9bbd fef4 073e f4c1 9a3d
00000180: 4486 0b3d db51 003e 0518 803c 7818 5d3d
00000190: c0a0 88bc ecfd a4bd 2eeb 923d 7fff 6dbc
000001a0: 3e59 37bb e8e8 243b b1ff 1c3c 9de1 96bd
000001b0: 8b78 d03d 0f8d b0be 6712 d3be 5ce4 44ba
000001c0: adae c4be 3c5e 75bd d79f 70be 64b9 dcbe
000001d0: 1fab edbd 9fb5 6ebe 7297 c7bd 5222 af3d
000001e0: 68ea e9bc de6b 793b 83e2 3fb9 dae5 b3bc
000001f0: 0022 aabd a678 a5bd 4fe2 7ebe e844 573d
00000200: 8d72 0b3e c59b 0bbe acbd 2d3d 4931 9f3d
00000210: df6d 9e3d c5a1 313e 8de5 c43d e608 7dbd
00000220: 3786 b8bd 3f16 9dbc f3d6 85bb 19f8 84bc
00000230: 3263 29bc 32b5 a9bc af9e 41bd 49b1 e33c
00000240: 922c a1bd 5ffe 44bd 3cfe 013f 39a1 bc3d
00000250: 7a28 b93e 7b6d 913d bf58 4b3e a49f a63d
00000260: 8a1c 203e 6dbb 0f3e 287e ddbd 2fbd 7ebe
00000270: 1d25 eb3d fe8d 54be 4ed8 03be 8065 f0bd
00000280: 0f85 98be c129 42be 18a9 e93d d061 ea3d
00000290: 7119 403d 75c5 11bd ea1d 0fbd 6bba 8ebd
000002a0: 7b65 98be 7c01 c8be 1305 bfbe fa18 303d
000002b0: 174a 5dbd e3dd 27be a41c 733d a988 11bd
000002c0: 3766 81be b0aa cb3c 8686 42bd b0c9 a1bd
000002d0: 7917 9bbd feb8 a6bc 804e a23c d8d8 a03d
000002e0: 9e18 b63d 0783 633d a91c 173e 79f9 2a3d
000002f0: 9c4d 113e 8002 38be 8f96 88be 3213 60be
00000300: 0e66 b6bd 38ee 20be 912f 25be c017 aa3e
00000310: 9f20 cb3e 3665 2e3f 8df5 80bd a5ad 753d
00000320: d36c c53d 6182 41bd 931f df3c dcbb 953d
00000330: 24f3 273d b95f 86bc 25f8 d73d b9df dd3d
00000340: b4d1 893c 3d40 e43c 397d 68bc 0a3c d3bb
00000350: 165b cb3d b68f b4bd 4637 783d df47 77bd
00000360: 72e1 c7bd 6cf8 76bd c35a ff3d 7e29 09be
00000370: 4191 20bb be73 943d 7509 bdbd c681 d33b
00000380: 4055 023d 1795 a1bc 79d9 193e 1891 b9bd
00000390: 4e1a ad3e 8783 a5bd 703a 2dbf 78fb f93d
000003a0: 59ec 40bf 3075 c0be d7e4 2e3d 3c9e 893e
000003b0: 0cf5 da3c a059 993e 2a75 9c3d 8f3e d5be
000003c0: ff0b f63d bf6d 00bf cf78 a1bd c270 8dbc
000003d0: 1f00 073e 2941 72bd fc40 b43c 82f7 b6bd
000003e0: 3964 36be 5064 21bd ab49 dbbe d8f3 623a
000003f0: c100 983d ff8d df3d e495 28be 5e5c a43d
-0.09646906 -0.10669018 -0.13202125 -0.0840279 -0.13795142 -0.20645672 -0.16740914 -0.1886288
-0.1263334 0.006369824 0.43022838 0.06928738 0.38677654 -0.21782638 0.40021792 0.26745647
0.062007006 0.18146425 -0.016690645 0.14863962 0.23471239 0.08080601 0.01822343 0.23502544
0.10674609 0.28794453 0.09360512 -0.13819817 -0.06316495 -0.04766399 -0.022116816 -0.15126258
0.085255705 0.10851778 0.23302424 -0.062898815 -0.12124649 -0.15986618 -0.0902068 -0.1920236
-0.1504111 -0.0064388937 -0.12677485 -0.072120056 -0.011348433 0.15623209 -0.15862358 -0.2154606
-0.14436585 -0.12873355 -0.054558314 -0.25825474 -0.05726232 0.099645756 -0.0072277207 -0.10131808
0.033200677 0.10615675 0.0056939283 0.29150793 0.04223858 -0.023135955 0.078299664 0.25749156
0.022101713 0.18778118 0.27121004 0.12232528 0.21437477 0.04849141 0.16795826 -0.0718515
-0.09436157 -0.032076333 -0.07206017 0.0032782294 -0.072516546 -0.2050952 0.09830584 -0.08862377
-0.17372406 -0.27236596 -0.33022702 -0.16869971 -0.4404082 -0.6581313 -0.45547184 -0.43553337
-0.714715 -0.48526108 0.07474681 0.07702285 0.16455889 -0.07590552 0.13277051 0.07556525
0.034063593 0.12531225 0.015636453 0.053978413 -0.016678214 -0.08056244 0.07173763 -0.014526247
-0.0027976776 0.0025163237 0.009582446 -0.07367251 0.10179242 -0.3448262 -0.41224977 -0.0007510835
-0.38414517 -0.059904322 -0.23498474 -0.43110192 -0.116049044 -0.2331147 -0.09745683 0.08551468
-0.028554156 0.0038058679 -0.00018299562 -0.021960188 -0.08307266 -0.080796525 -0.24891017 0.05255595
0.13617916 -0.1363364 0.042417213 0.07773072 0.077358 0.17346866 0.09614096 -0.061776064
-0.090099744 -0.019175647 -0.004084462 -0.016231583 -0.010338591 -0.020716283 -0.047270473 0.027794497
-0.07869829 -0.04809415 0.50778556 0.09210438 0.36163694 0.0710096 0.19858073 0.08135918
0.15635887 0.14036341 -0.10815078 -0.24876855 0.11481688 -0.2075729 -0.12875482 -0.117381096
-0.29789016 -0.1896124 0.11409205 0.114444375 0.046899263 -0.0355887 -0.034940638 -0.0696915
-0.29764923 -0.39063632 -0.3730856 0.04299257 -0.054025736 -0.16393237 0.059353486 -0.03553072
-0.25273296 0.024861664 -0.047491573 -0.07899797 -0.075728364 -0.020351883 0.019812822 0.0785386
0.08891414 0.05554488 0.14757027 0.041741822 0.14189762 -0.17969704 -0.26677367 -0.21882322
-0.08906184 -0.15715873 -0.16131426 0.33221245 0.39673325 0.68123186 -0.06296835 0.059980053
0.09639897 -0.04724348 0.027236735 0.07311222 0.04100336 -0.016403066 0.10545377 0.10833687
0.016823627 0.027862662 -0.014190012 -0.006446366 0.09929483 -0.08816473 0.060599588 -0.060371276
-0.09759797 -0.060295507 0.12468483 -0.13394734 -0.002450064 0.072486386 -0.092303194 0.006454679
0.031819582 -0.019724412 0.15024365 -0.090608776 0.3380913 -0.080817275 -0.67667294 0.12206167
-0.7536064 -0.37589407 0.042698707 0.26878536 0.026728176 0.2995119 0.07639535 -0.4164929
0.12014007 -0.5016746 -0.078843705 -0.017265681 0.1318364 -0.059144173 0.022003643 -0.08933927
-0.1781167 -0.039402306 -0.42829642 0.00086575514 0.07422019 0.109157555 -0.16463429 0.0802543

model.conv2.bias f4 [16]
00000000: 15b1 c2b9 52af 083a fba7 bbba ee33 3c3a
00000010: 869b 88ba ad6c 103a c136 0b3a 4567 3db9
00000020: 99cf b1ba 2388 5c3a a3a5 0bbb e6d7 d7b9
00000030: b48f aa3a 30e3 3339 f834 3eb9 add6 813a
-0.000371345 0.0005214113 -0.001431703 0.0007179369 -0.0010422326 0.0005509358 0.0005310588 -0.00018062915
-0.0013565897 0.000841262 -0.0021308444 -0.00041168852 0.0013012798 0.00017155404 -0.00018139544 0.0009905897

model.batchnorm_2.weight f4 [16]
00000000: b177 ff3e a78d 983f 60d8 4e3f e840 2b3f
00000010: 3157 843f 67a8 203f e186 153f f771 a93f
00000020: e890 fe3e 1cb2 803f 5e2d 413f 42b4 4e3f
00000030: 2320 283f 2536 3a3f c9e4 a33f 59a9 483f
0.49896005 1.1918229 0.8079891 0.66895914 1.0339109 0.6275696 0.58408934 1.3237904
0.4971993 1.0054355 0.7545985 0.807438 0.65674037 0.7273887 1.2804195 0.78383404

model.batchnorm_2.bias f4 [16]
00000000: c0fb 17be 1b60 00bf 4f50 8bbe 0d69 eebe
00000010: 5a8a 40bf 3156 d5bd 161e afbe 03d9 3abf
00000020: 1804 e03d fe6e 09bf bee6 f9be 6a96 1fbf
00000030: 8c9e 0ebe b7ed 86bd d52f 4abf 73dc febe
-0.14842129 -0.50146645 -0.27209708 -0.46564522 -0.7521111 -0.1041683 -0.3420264 -0.72987384
0.10938281 -0.53684986 -0.48808855 -0.6233889 -0.13927668 -0.06588309 -0.78979236 -0.49777564

model.batchnorm_2.running_mean f4 [16]
00000000: 3c4c d2be 0a64 afbf 4f6e 99bf bec5 23be
00000010: dc47 c4bf d0f1 9ebe 6ddc 623d b05f 28c0
00000020: f42f 0fbf 0ba2 86bf ce87 4dbf 4344 24bf
00000030: 2fc6 d23e ae83 48c0 b119 51c0 29b9 2fbf
-0.41073787 -1.3702404 -1.1986789 -0.15993401 -1.533443 -0.31043863 0.055385996 -2.6308403
-0.55932546 -1.0518202 -0.80285347 -0.6416666 0.41166827 -3.133037 -3.267193 -0.68641907

model.batchnorm_2.running_var f4 [16]
00000000: db6e ab3f d2fd b040 3c17 3240 6452 8e3f
00000010: b9fb 2240 16f9 0040 0959 643f ee4e a140
00000020: effc c73f 2310 2540 e301 993f cf9f 8a3f
00000030: d7ab a63f f554 6740 475e 9c40 9a1e 653f
1.3393205 5.530984 2.782668 1.1118894 2.546614 2.015203 0.89198357 5.040885
1.5624064 2.57911 1.1953701 1.083002 1.3021191 3.6145604 4.8865085 0.8949982

model.fc1.weight f4 [120, 576]
00000000: c0cb eabd 7a6c 09be 3ee2 b5bd f435 de3b
00000010: 001c f338 3170 843c db53 7cbe 6127 97bd
00000020: f654 bc3d 297d a73d 15f3 9a3c 4360 f8bd
00000030: b7eb bb3d aed0 ce3d 055b 223e 0306 363e
00000040: ba6b 903d c503 68bb c2c5 5a3e 699b 113e
00000050: c310 cc3d 3063 6a3c ca35 40bc e3fa e0bc
00000060: 7815 073e 17c6 c43d 53d6 0c3d f385 03bd
00000070: 7921 f33b 377d 0a3d 0548 fdbc d961 e5bc
00000080: 7877 853c a13e acbc 0e5e 1c3d 3668 b53d
00000090: 818e 353d 9fc1 da3c 924c d13b 217b f3bc
000000a0: 0871 903b f399 0f3d 41a7 143e 2f0b 553d
000000b0: 8356 833d 2806 f03d cf9f fd3d 7165 043e
000000c0: 5fa4 bf3d c491 a8bd 8845 17be 0363 04be
000000d0: 7a12 3fbe 5548 dcbd 67a0 b83d 3c82 20bd
000000e0: 8792 b93d 316d 8c3d e1cd 1ebd f574 67bd
000000f0: 0770 27be 6776 09be b3a1 b5bd 4028 c93c
00000100: 4d95 66bd 7829 57be 4108 20be 0ccd f7bc
00000110: 26f1 32bd 7679 533d d546 e93d ae6b 17bd
00000120: f01b eebc cea3 92bc 4b33 e43d fea8 0c3e
00000130: 3f66 8a3d b340 983c 8af1 323e 3a32 363e
00000140: b92e 033e 60a0 c03d d63f 0c3d 41b9 df3d
00000150: 67e5 603e 495d 543e 22ed 5e3e 4276 fd3d
00000160: 54ba 983d 918e 233c 4eca e1bd d0af 6abe
00000170: a6a4 56be cb13 74be 3f54 89be 4ae4 9abe
00000180: e322 03be 0a45 60be 816c 34be cdbd 52be
00000190: b80d 84bd f89c 59bd 533a 8abd f0a3 1f3d
000001a0: 0e56 09bc f83c 64bc c88c 223d 8ba3 253e
000001b0: aea4 0fbd 4627 e3bd ef4a 9ebd 3f12 3cbd
000001c0: b26c a8bd 1d6e 45be 77d7 5bbd 141d 03bc
000001d0: 7634 2abc 6a38 53bd 0cbc e7bc e8bb e4bd
000001e0: 74ea c0bc f79f 143e 9d9b ea3d ba27 cc3d
000001f0: 3c7b ff3d 0a88 85bc eaf9 dbbd 555e 3ebc
00000200: f767 96bc 6d9e 4abd 65c6 afbc 8176 d0bd
00000210: 8784 c63d f3d8 373e ab4a 283e fac3 243e
00000220: f8cb 563e 75d8 313e b707 913d 8fb5 da3d
00000230: cc33 203e f960 d23d 6241 af3d 8434 253e
00000240: d4d5 92bd 1d77 89bd 3d11 363c 9cd2 023e
00000250: c6cb e73d 334e 253d 8686 13be aeed 82bd
00000260: c95c 2b3d 24a2 973d 2121 49bd 3a6a 99bd
00000270: 3b77 b73b e6e4 553d 22fc 583d e9ea 44bd
00000280: 3e9a c7bd b335 43be a462 143d 9c14 5c3d
00000290: 1174 b43c 0e8b 64bc 9959 8ebd 9e68 b9bc
000002a0: 4930 033e c974 8b3d 09a4 1e3d 9f2e db3d
000002b0: e382 ea3d fbb4 c73c 4217 febb 3285 01bd
000002c0: fda5 bf3d 3ea9 da3d 2fb7 023e d5ca 453d
000002d0: 6ffc 44bc a4e3 3e3e 2927 503e 6975 583e
000002e0: b102 d53d dddf e33c 76f8 4dbc 67a9 59bd
000002f0: 100d a1bd ca0a 93bd c5ba 89b9 1b00 eb3b
00000300: 3527 f43b 0aa8 bbbc 1d61 a5bd 9acd 43bd
00000310: b97c 233d 0eca 253c cd5b c5bc e0bb dabe
00000320: e878 06bf 8021 08bf fd3d d2be 3d50 c3be
00000330: 5092 b43b 7c8a 85be 1576 c3be 29e2 c0be
00000340: 04c7 a1be bed1 0cbe f35a 603d b3c0 c03d
00000350: fd67 d63d 44a0 0b3e 5813 f93d 13a8 163d
00000360: 654f 303e 9270 df3d 0072 b43c ae6f edbc
00000370: d0ab b5bd 6c56 01be 37d5 043e def9 8a3a
00000380: f848 8fbd 1929 64bd 3f68 abbd ce7b 16be
00000390: fb68 02be 6790 3fbe fcac 32be 6483 27bd
000003a0: 2d6d 763d a9ec 103d b2ba 5cbe 8a11 3fbe
000003b0: dfcf 58be 13cc 10be bc8b 9dbd 66e2 ab3d
000003c0: c02b 2cbd a6eb cb3d 2ac7 9d3d 1d58 43bd
000003d0: 6834 f43b 6001 1d3e 5b06 893d f305 1f3d
000003e0: 2e9a dd3c b8d3 55bd d34a 2cbd d165 31bd
000003f0: cf50 b6bc 02a0 253e a67e 2f3e 04e5 b33d
-0.114646435 -0.13420287 -0.08881043 0.006781334 0.00011592358 0.016166778 -0.24641363 -0.07380558
0.091958925 0.08178169 0.018914739 -0.121277355 0.091758184 0.10098396 0.15855034 0.17775731
0.07051797 -0.0035402637 0.21364501 0.1421944 0.099641345 0.014305875 -0.011731574 -0.027463382
0.13191783 0.09608095 0.034384083 -0.032110166 0.0074197617 0.03381082 -0.03091813 -0.028000759
0.016292319 -0.021025958 0.038175635 0.08857767 0.044325355 0.026703654 0.0063873017 -0.029721798
0.0044080056 0.035058927 0.14516927 0.05201262 0.06412985 0.11719924 0.12383997 0.12929322
0.09357523 -0.082309276 -0.14772618 -0.12928395 -0.18659392 -0.10755984 0.09014969 -0.0391867
0.09061151 0.06856764 -0.03877056 -0.056508023 -0.16351329 -0.13424073 -0.08868732 0.024555326
-0.056294728 -0.21011913 -0.15628149 -0.030249141 -0.04368701 0.051629506 0.11390463 -0.036967926
-0.029066056 -0.017900374 0.11142596 0.1373634 0.06757783 0.018585538 0.17474952 0.17792597
0.12810792 0.09405589 0.034240566 0.10924006 0.2196251 0.2073871 0.21770146 0.123760715
0.07457414 0.009982721 -0.11024915 -0.2291863 -0.20961246 -0.23835675 -0.26822087 -0.30252296
-0.12806277 -0.21901336 -0.17619516 -0.20580216 -0.06447929 -0.053128213 -0.06749406 0.038974702
-0.008382333 -0.013930552 0.03968504 0.16175668 -0.03506916 -0.11091475 -0.07729136 -0.04591584
-0.08223857 -0.19280286 -0.05367228 -0.008002538 -0.010388484 -0.051567473 -0.02828791 -0.11168653
-0.023549296 0.14514147 0.11455462 0.09968515 0.12474677 -0.01630022 -0.10741027 -0.01161917
-0.018360121 -0.049467493 -0.021456907 -0.10178853 0.09693246 0.17953853 0.16434734 0.16090384
0.20976245 0.17367728 0.070815496 0.10679161 0.15644759 0.10272402 0.08557393 0.16133314
-0.07169691 -0.06712172 0.011112508 0.12775654 0.113181636 0.04035778 -0.14406785 -0.0639299
0.041836534 0.07403973 -0.04910386 -0.07490964 0.00559893 0.052220248 0.052974828 -0.04807559
-0.09746216 -0.19063453 0.036226884 0.053730592 0.022028001 -0.013949169 -0.06950683 -0.022632893
0.12811388 0.068093844 0.038730655 0.10702252 0.11450746 0.02437829 -0.0077542374 -0.031621166
0.093578316 0.10676812 0.12765191 0.04828914 -0.0120230755 0.18641526 0.20327438 0.21138538
0.10400904 0.027816707 -0.012571445 -0.05314007 -0.078638196 -0.07179792 -0.0002626983 0.0071716434
0.007450963 -0.022907276 -0.080751635 -0.0478035 0.039913867 0.010118974 -0.024091626 -0.42721462
-0.5252824 -0.53176117 -0.41062918 -0.38147154 0.005510606 -0.26082218 -0.38176027 -0.37672547
-0.3159715 -0.13751885 0.054774236 0.094117545 0.10469053 0.13635355 0.12161893 0.03678138
0.17217787 0.10910143 0.022027016 -0.028983917 -0.08870661 -0.12630624 0.1297196 0.0010603031
-0.069963396 -0.055703256 -0.08369493 -0.14695665 -0.1273536 -0.18707429 -0.17448801 -0.04089679
0.060162712 0.035381947 -0.21555594 -0.18659034 -0.21173047 -0.14140348 -0.07692668 0.083927915
-0.04203391 0.09957056 0.07704003 -0.047691453 0.0074525364 0.15332556 0.06690665 0.038824033
0.027051058 -0.052203864 -0.042063545 -0.04330999 -0.02225533 0.1617432 0.17138156 0.08783916

model.fc1.bias f4 [120]
00000000: 1a78 033e ab02 70be fce6 ccbe cb01 a9be
00000010: cabd d2bd ca92 ec3e b43f f7bc c2cf 093e
00000020: 4eb9 70bf cc91 00be d2a5 29bc ef0f 7e3e
00000030: 5324 0e3e 8d4f 913e 8ec2 a13d 6cd9 123f
00000040: 6d5e 1cbd 97a7 b1be 21fd f53e cef9 b4be
00000050: f126 82be 6c13 0100 daec b7be 6b8c 1e3f
00000060: 46e4 8b3e cd11 0100 e642 1b3e 6bc2 2ebe
00000070: f87e 3b3e 3163 c03c ef12 0100 1312 0100
00000080: 95da 03bf c437 b13e 663c babd 15a9 c1bc
00000090: 065a 32be 55e8 813e 7928 413f 1f9c 363e
000000a0: 12ab c03e 4bc9 97be 9ffb adbd 917f 073e
000000b0: c16e 08bf b32a 683e e0ce c93e a98f ab3b
000000c0: 4d13 0180 8643 febe b712 0100 0a32 453f
000000d0: 9089 de3e 5e37 1b3f f012 0100 dd4e 693e
000000e0: d12e e3be 64a5 813e a431 353f 5c72 0f3e
000000f0: 6855 a33d d402 893e 4a0b dd3e 8bca 8bbe
00000100: 0e14 0180 4453 d0bd 7b46 4ebe c392 853e
00000110: 9642 7f3f 579f 993d 3c71 c23e 6da2 843e
00000120: 2675 b5bd 8713 a13e 3bb4 6f3e 799b 26bc
00000130: 2f40 453f 9105 303f ab67 123e a0c8 aabe
00000140: 771b 48be 49c4 8c3f 06f5 babe 92e7 1c3f
00000150: f911 0100 c39d 08bf d3de ed3e 0640 e33d
00000160: 76ba d03e 1731 9a3e 01d1 0dbe a1d6 85be
00000170: 69fa 8c3e e45a 9cbe a5ad 043f 8e34 423f
00000180: 67ce 773c bc00 7dbf 8344 fcbe 9f6f afbe
00000190: 1faf bfbe ae2d 983e d877 c03e 1084 533f
000001a0: ad4e 213e 5bb4 df3e 39aa 323f 86fc 1e3f
000001b0: 71f3 51bc 477e 5abe ffd8 bfbd 90b5 0d3e
000001c0: 1a69 d43e f2e8 573e 7164 ed3d db7e 03be
000001d0: 263e fabc c126 0d3d 818a 2d3e 0428 e7be
0.12838784 -0.23438518 -0.40019977 -0.3300918 -0.10290106 0.4620574 -0.030181743 0.1345816
-0.9403275 -0.12555617 -0.010354476 0.24810766 0.13881044 0.28381005 0.078984365 0.5736301
-0.03817599 -0.34698173 0.48044685 -0.35346836 -0.25420335 9.8803e-41 -0.3592289 0.6193301
0.27322596 9.8221e-41 0.15162238 -0.17066352 0.18310153 0.023484798 9.8628e-41 9.832e-41
-0.51505405 0.34612858 -0.09093551 -0.023640195 -0.17417154 0.25372568 0.7545238 0.17832993
0.37630516 -0.29645762 -0.084952585 0.13232256 -0.53294 0.22672538 0.39415646 0.0052356315
-9.876e-41 -0.4966089 9.8549e-41 0.7702948 0.43464327 0.6063136 9.8629e-41 0.2278399
-0.44371656 0.25321496 0.7077887 0.14008468 0.07975274 0.2675997 0.43172675 -0.27302966
-9.903e-41 -0.10172132 -0.20144074 0.26088533 0.9971098 0.07501095 0.37977016 0.2590517
-0.08860235 0.3146021 0.23408596 -0.0101689035 0.7705106 0.68758494 0.14297359 -0.3335619
-0.19541727 1.0997401 -0.36515063 0.6129085 9.8283e-41 -0.53365725 0.46459064 0.11096196
0.40767258 0.30115578 -0.1384926 -0.2614031 0.27534798 -0.30538094 0.5182746 0.7586144
0.015124894 -0.98829246 -0.4927102 -0.34264848 -0.37438294 0.2972235 0.37591434 0.82623386
0.15752669 0.43692288 0.6979099 0.6210407 -0.012814389 -0.21337233 -0.093675606 0.13838792
0.41486436 0.21084955 0.11591423 -0.1284136 -0.030547213 0.034460787 0.16947366 -0.45147717

model.fc2.weight f4 [84, 120]
00000000: b54e 98be 13da 803e 22da dd3c 91d1 093c
00000010: 3062 aabc a451 f5bc 6d2e e1bd 1318 6b3e
00000020: ee1e 18bd d123 f5bd 5820 2abd 3c57 c3bd
00000030: f831 4a3d e636 0cbc 2ad3 6b3c fea0 9dbd
00000040: 00c7 a9bd e33a 1e3d be14 f0bd 7a0c 14bc
00000050: 180d a13a d111 0100 5fae d9bd e312 f03d
00000060: 7d94 823e af12 0100 cdf7 a53d f073 813d
00000070: 9945 08be 0b33 4d3e 3d12 0180 0d13 0100
00000080: dc45 0cbe 56de b7bd fd8e ad3d 32bd a7be
00000090: 58c5 7fbe 8cec d93d 4523 3b3e 455e b4bd
000000a0: 4364 e23d 4da4 5b3d 8068 27bd 0504 49be
000000b0: 0d11 663e 8a68 19bd 9d34 a03d 5710 83be
000000c0: 8d13 0180 3afe b1bc 5012 0180 6b2e ca3d
000000d0: 7c56 ea3d e6bc 88bc ce12 0100 0795 16be
000000e0: 8621 abbe f540 91bc d095 2ebd d588 27bd
000000f0: 0087 3cbe 2f37 8d3d 827a c23d 77f7 4d3e
00000100: 0a13 0180 4695 993d 256c e4bc bbfd f5bc
00000110: 2d4a 833d 19df 533d d06c fabd f04f 183e
00000120: 9e67 1c3b 6000 2c3e b87d 87bc 610f 653d
00000130: 9549 cb3b b904 e6ba aac2 d1bd 1daa 56be
00000140: b90e 85bd 0e91 0b3e 7eb9 b9bd 9cc9 c63d
00000150: e311 0180 fb09 253e fa7d a23d 2b1a 0b3e
00000160: 9e76 ab3d 9faf 9cbd 076c 0a3e 2223 ad3d
00000170: 28f0 27bd 64c9 b9bd 552d 793d 3089 17be
00000180: 04d0 18be ecc3 08be e36d 4ebe 0e18 4b3d
00000190: 7867 4cbe 49e5 ebba b835 383e 63dc 40bd
000001a0: b954 4c3c c352 2b3d c647 efbc 4524 30bd
000001b0: bea2 4abd ab0f 3f3d c406 80be 8457 e0bd
000001c0: c6dc 90bb 9370 7e3e f7fe 763d 6708 fcbd
000001d0: 8f29 c43e 7995 7dbd 1e68 8e3d 6dc2 95bd
000001e0: 4a51 5b3e 5700 d3bd 4c5a 9dbd 91a8 a13d
000001f0: 1c1b 0dbe 12ff 2e3e 650b 023e 37be 52bd
00000200: d1e7 cabe a387 8c3d a544 ec3d 3c72 58be
00000210: 1778 ab3d c321 4e3b 6dcc 46be 7ca6 2c3b
00000220: 78a1 0e3e 4921 49be a1bd 113d 2f04 76be
00000230: f3b5 e5ba 0814 0100 edd9 91be 9a8a be3d
00000240: cff1 933d a611 0180 520a d83c b364 15bd
00000250: 0df5 eebd 8c87 3b3e b713 0100 9611 0180
00000260: de22 edbb 1afa 8ebc c186 683d 9331 a6bd
00000270: 3c0e 433e 56b6 21be df21 033e 4647 bd3d
00000280: 69dd a93d b265 5bbe e7d9 4a3d eb7d 2d3d
00000290: 7604 b4bd decb 4f3e 2ed8 1dbd c62d 80bd
000002a0: ea12 0100 b35e 8cbd ac13 0100 1965 113e
000002b0: 0453 353e 50c5 2f3e e013 0180 3ba1 213e
000002c0: 8e2f c83d b08f d6bb ff6e d33d 087b 563e
000002d0: 81e4 14be 95e1 a33d 45a0 d23d 01b5 393d
000002e0: 0613 0180 edc4 363e 4f43 8ebc 61b2 ce3b
000002f0: 0084 9a3e 4a0f 3fbd 8d05 e7bc 7c6b 19bd
00000300: 55f7 b0be b531 bebd 5d83 dbbc 6415 d3bd
00000310: 760a b4bd b153 9c3c 1659 a23e 6e26 c4bb
00000320: 3f74 bebc 41b6 4b3e 5d6e 7bbd 3f31 fc3d
00000330: 9c12 0100 26d6 e0bc 7b00 fdbd 00bb 84bd
00000340: 9791 30be 2bfe 34be c148 1bbd e522 773d
00000350: c037 a93d 673c 7b3d d79f 003d ccf6 babc
00000360: 5016 d83d 8e7c fdbd 1026 36be adf5 0a3e
00000370: 8560 483e d940 823c 1b4e e5be 36a9 7b3b
00000380: 0e3b 213d b341 46be 150f 133e e0ef 65bd
00000390: c806 293e cdef bdbd 9b0a 10be 2aed 793e
000003a0: 7916 49bd db97 c43c faf1 103e 70cd 2ebe
000003b0: abe3 d0bc 2dc9 1f3e 1f2d 44be 7b67 b8bc
000003c0: 663b febd d7f5 e73b e7b5 e03d c800 b5bc
000003d0: 1e25 273c 7411 65bd 82e3 903d 684b cf3d
000003e0: ee53 29be c609 313e 5c40 073d 1175 7bbe
000003f0: b9ab 90bc 9e50 a4bc a385 903e 4dea ff3d
-0.2974755 0.25166377 0.027081553 0.008411781 -0.020798773 -0.029946156 -0.10995183 0.22958402
-0.03713887 -0.11969722 -0.04153475 -0.09538123 0.04936406 -0.008558011 0.014393607 -0.076967224
-0.08289909 0.038630378 -0.11722706 -0.009036178 0.0012287227 9.8227e-41 -0.10628962 0.11722352
0.25503913 9.8538e-41 0.08103905 0.063209414 -0.133078 0.20039003 -9.8378e-41 9.867e-41
-0.13698524 -0.08977954 0.084745385 -0.32761532 -0.24977624 0.10640821 0.18275173 -0.08807043
0.1105428 0.053623486 -0.040871143 -0.1963044 0.22467442 -0.03745321 0.07822535 -0.25598404
-9.8849e-41 -0.02172767 -9.8405e-41 0.09872135 0.11442277 -0.016691636 9.8581e-41 -0.14705287
-0.33424014 -0.01773117 -0.04262334 -0.040901978 -0.18410873 0.06895291 0.09496023 0.20113932
-9.8665e-41 0.07499175 -0.027883599 -0.030028215 0.06410632 0.051726434 -0.122277856 0.14874244
0.0023865472 0.16797018 -0.01653944 0.05592287 0.00620384 -0.0017549015 -0.10242207 -0.2096333
-0.06496949 0.13629553 -0.09068583 0.09706423 -9.8252e-41 0.16117088 0.07934184 0.13584201
0.08372234 -0.076506846 0.13517772 0.08453967 -0.041000515 -0.09071615 0.060834248 -0.14798427
-0.14923102 -0.13355988 -0.20159106 0.049583487 -0.19961345 -0.001799741 0.17989242 -0.047085177
0.012471371 0.041826975 -0.029209029 -0.04300334 -0.04947161 0.0466458 -0.25005162 -0.10954192
-0.0044208495 0.24847631 0.060301747 -0.1230629 0.38312957 -0.061910126 0.069534525 -0.073124744
0.21417728 -0.10302799 -0.076832384 0.078934796 -0.13779873 0.17089489 0.12699659 -0.051450934
-0.39629987 0.06861808 0.115365304 -0.21137327 0.08372515 0.003145323 -0.1941392 0.002634435
0.13928783 -0.19641604 0.035581235 -0.24025033 -0.0017525539 9.9021e-41 -0.28486577 0.0930378
0.07223856 -9.8167e-41 0.026372109 -0.036472987 -0.116678335 0.18313426 9.8908e-41 -9.8144e-41
-0.0072368225 -0.017453242 0.056769136 -0.08114924 0.19048399 -0.15792212 0.1280589 0.0924211
0.08294184 -0.21425512 0.049524214 0.042356413 -0.08789913 0.20292613 -0.038536243 -0.062587306
9.862e-41 -0.06854 9.8892e-41 0.14198722 0.17707449 0.17165112 -9.8965e-41 0.15784161
0.09774695 -0.0065478906 0.10323905 0.2094537 -0.14540292 0.08002011 0.10284475 0.045338634
-9.866e-41 0.17848559 -0.01736608 0.0063078855 0.30178833 -0.04664544 -0.028200889 -0.03745602
-0.345637 -0.092868246 -0.026796037 -0.10306814 -0.08791058 0.019082876 0.31708592 -0.0059860265
-0.02324879 0.19893743 -0.061384548 0.123140804 9.8511e-41 -0.027445864 -0.12353607 -0.0648098
-0.17243038 -0.17675082 -0.03791118 0.060336012 0.082625866 0.0613369 0.031402435 -0.02282276
0.10551131 -0.123772725 -0.17787957 0.1357028 0.1956807 0.015900062 -0.44786152 0.0038400418
0.03936296 -0.19361 0.14361222 -0.056136966 0.16506493 -0.09274254 -0.14066546 0.24406877
-0.049093697 0.023998192 0.14154807 -0.17070556 -0.025499186 0.15604086 -0.19157837 -0.02251028
-0.12413673 0.007078867 0.10972195 -0.0220951 0.0102017205 -0.055924848 0.07074644 0.101218045
-0.16535923 0.17288885 0.033020362 -0.24556376 -0.017660009 -0.020057973 0.28226957 0.12495861

model.fc2.bias f4 [84]
00000000: 19bf 4e3f e450 243f ca9f 0d3f acc2 88bd
00000010: 3d5b 18be 2ea0 58bd 31a5 6ebe a62c 283e
00000020: 8bdf 463e 68cc e13e 6f4f 083e b5d9 c03d
00000030: b83c 673e 9cb1 09be f698 263e cd1f 943b
00000040: 04b7 213f 4419 833e fd0a 183f 1f0e f53e
00000050: 10b0 c93e 05fe 263f 35c5 533f 6347 61be
00000060: d412 0100 8334 2d3e 697a 033f e2f6 303e
00000070: dfd1 be3d 4c4c 1abe 1f8e 8bbe 46ab 05be
00000080: 9f4b 0100 86aa aa3c acd3 9e3e b211 0100
00000090: a0a8 ef3e 1cdb d03e 3552 033f a458 30be
000000a0: dab3 053f 3612 0100 3481 783d a101 003f
000000b0: 139b c73e 43a1 c0bb 57f4 b03e d087 0d3f
000000c0: e443 f3bb 63ac 1abe c0d6 5a3e c713 0100
000000d0: e3c0 4f3e 9caa ac3d 3404 343e 54a0 153f
000000e0: dea7 c93e 54e9 1f3f 7dd0 4a3e 09d6 113f
000000f0: e5c1 143e 327b 043e 9f88 5f3c 8e14 80be
00000100: b9d2 2c3f 889a b13e a5ac 593e cf25 9dbe
00000110: f04f 143f 3f12 0100 756f ab3b 7ed6 1c3f
00000120: ffd4 b7be 43d7 a93e ea09 803e 9c29 353f
00000130: 768b 0fbe 123e 213e d82b e63e 2697 4f3f
00000140: dc63 11bf 36f0 823e 3726 9d3e 0091 133e
0.8076034 0.6418593 0.55321944 -0.06677756 -0.14878555 -0.052887134 -0.23305203 0.16423282
0.19421212 0.44101262 0.13311552 0.09416524 0.22581756 -0.13446659 0.16269287 0.0045203925
0.63169885 0.25605214 0.59391767 0.47862336 0.39392138 0.65231353 0.8272279 -0.21999888
9.859e-41 0.16914563 0.5135866 0.17281678 0.093173735 -0.15068167 -0.27256867 -0.13053617
1.18963e-40 0.020833265 0.31020868 9.8183e-41 0.46808338 0.40792167 0.5129731 -0.17221314
0.52227557 9.8368e-41 0.060670093 0.50002486 0.389855 -0.005878599 0.34561417 0.5528536
-0.0074238647 -0.15104823 0.21370983 9.893e-41 0.20288424 0.08430979 0.17579728 0.58447766
0.39385885 0.62465405 0.19806094 0.56967217 0.1452709 0.1293762 0.013643413 -0.25015682
0.6750904 0.3468821 0.21257265 -0.30692908 0.57934475 9.8381e-41 0.0052317926 0.6126479
-0.3590469 0.33172044 0.25007564 0.70766616 -0.14018044 0.15746334 0.44955325 0.8109001
-0.56793 0.2557389 0.30693218 0.14410782

model.fc3.weight f4 [10, 84]
00000000: 722f 03bf 555f 07bc e42c a6be 98e7 a3be
00000010: 3aef 973d fd08 103e 7c85 ce3d f94d 36be
00000020: cdf5 49be 6b23 4fbe 4dd7 90bd 8cd4 6dbd
00000030: 3744 183e ec32 273e ecc3 fb3d 858f 553e
00000040: ab78 49bd 5574 903c f4cc cbbe 145e 8cbe
00000050: cb87 11be a4be ef3d 45aa 15be bf13 8cbe
00000060: eb11 0100 938f 373e 8e60 953c a2db 753d
00000070: 3144 813d 7272 7bbd d645 67bd da38 73be
00000080: 3012 0180 80e1 523d c4ce b93d c012 0180
00000090: 9e07 08be 2272 e4bd cc56 12be 4a1f 673e
000000a0: c6f8 71be fe12 0100 404d 603e 717c 953e
000000b0: 843d ae3d a8fd 1ebc 67b4 1ebd c408 a7bc
000000c0: b06e 323e d734 563e 18eb 64bd c012 0100
000000d0: 9a27 3a39 2825 2e3e 7da8 c7bd ef89 f73d
000000e0: 5829 743d 6518 c13d 492c ba3c 90e9 94be
000000f0: 3a6b 68be 480e 3cbe 4a42 4bbe c563 cc3b
00000100: aa96 943e dee0 7cbe eca1 a8bd cb28 c63e
00000110: d3bc ccbd 1412 0100 0fe9 a83d aefa 903d
00000120: 6346 2a3d 184e cabd a760 d2bd 49e7 b6be
00000130: aeb3 813e 7f98 a9bd f639 c03d cc1a 26bd
00000140: 57ce ab3e 4c9d bbbe 97a6 d1bd c719 133e
00000150: 224c 1f3e e728 8ebe bdbb dcbe 3b3f a63e
00000160: 303e 333e 24c2 56be edf3 993e 3ecd 883e
00000170: ea64 92be 55b5 bfbe 428c 50be 6583 133e
00000180: a71f 9cbe 8578 733e 59cd 9dbe 8470 9cbd
00000190: c979 61be a793 783e 6aa1 4dbe 5bf0 a83e
000001a0: 1705 7e3e c3f8 e0bd 25b8 b1be ad1c 3f3e
000001b0: c712 0180 9073 a1be 4d3b d3bc 4c9e 723e
000001c0: d4df 4dbe c1b4 5d3e ad34 5cba 91e9 67be
000001d0: 7212 0100 7c79 07bf 7638 963b 1212 0180
000001e0: 66eb ecbe bb4a 0ebe 8456 3fbe 24bd 15be
000001f0: 635b 68bd 9413 0100 7885 acbe e3fa f83d
00000200: a450 18be 642f a33d 7036 e4bd 034b b93c
00000210: de19 8fbe 07cb 553e b523 593e 2012 0180
00000220: 7b40 90be 1576 90be b2a7 c23e 492d b3be
00000230: 638b 153e 671d dcbd a3fc 27be 8be5 a3bd
00000240: f442 2f3e f29b 8eb9 401d adbd 73ed 8d3e
00000250: d43b 8ebe ac95 343d 7d86 b73c 56cf 4ebd
00000260: 7454 84bd 3712 0180 2126 433c a657 a43d
00000270: bc34 60be 0838 f93b 2f16 30bd 789e b3bd
00000280: df61 8abc 830d 4ebe 82c7 383e 67a4 14be
00000290: 321e bd3d feef a23d 15bb ac3d cc1d 20be
000002a0: f50e 073e 8ee5 113d 74ec a93d 7ea5 523d
000002b0: 9573 fe3d db4d 6b3e e3e6 073d a7cf d83e
000002c0: f4d7 3b3e 6dc2 283e 10cd a8bd 7eba c73b
000002d0: 5321 ec3e c438 e23d 65b0 1d3d 19c3 9dbd
000002e0: 3778 0ebe 3b2f 1d3d 3c74 21be 9a8d 4abe
000002f0: 506a e93d e144 49be 115f 88be 5abd 74be
00000300: e911 0100 e48a a53d 6b80 6abe 8c19 4abe
00000310: 6e69 bdbc a34e 9ebd 34ac a6bc 1aac e7bd
00000320: e713 0180 3dbf 3a3e e8c6 83bc 1614 0180
00000330: 9d83 92ba f114 9d3c 8ccd bbbe d0ba 6c3e
00000340: 2402 15bd f413 0180 e0dc 8a3d 4ff7 1cbe
00000350: 460a 553d 5598 643e 4174 c3be 7990 c0bd
00000360: c41a 9cbd dfbe d8bd 1ec7 31be e411 0100
00000370: c0ab 72bc a449 df3d ccf1 27be 9721 19bd
00000380: 65d9 ccbe 9615 4c3e 6b91 04be 8c63 09be
00000390: 66b1 533e 99dc a73e f30c fb3d a8d8 c5bc
000003a0: db59 33be dec2 aebd 6eff 43be 6a45 4dbe
000003b0: ad4c 8dbe da13 0100 aa51 8c3e 1439 12bd
000003c0: 40ad b43e 1507 a53d ccf2 283e 0e1f d53d
000003d0: 5208 3c3e ef33 103d 2bfc 9cbe 6627 253e
000003e0: ebb7 413e 1be2 8b3e b5ba 15be 8b3b 8d3c
000003f0: 927e d63b 1700 9f3c d416 383d c495 8bbd
-0.5124427 -0.008262475 -0.32456124 -0.3201263 0.07418676 0.14065929 0.10084054 -0.17803182
-0.19722672 -0.20228355 -0.07072315 -0.05806403 0.14869772 0.16328019 0.122932285 0.2085553
-0.049187344 0.017633596 -0.39804804 -0.27415526 -0.14211957 0.11706284 -0.14615734 -0.27358815
9.8263e-41 0.17925863 0.018234517 0.06002391 0.063118346 -0.06138844 -0.056463085 -0.23752156
-9.836e-41 0.051484585 0.090726405 -9.8562e-41 -0.13284156 -0.111545816 -0.14290923 0.2257053
-0.23630056 9.8649e-41 0.21904469 0.29196504 0.08507827 -0.009704031 -0.038746264 -0.020389922
0.17425036 0.20918594 -0.055888265 9.8562e-41 0.00017753095 0.17006361 -0.097489335 0.120868556
0.05960974 0.09428481 0.022726195 -0.29084444 -0.22697154 -0.18364823 -0.19849506 0.0062374794
0.29021198 -0.24695155 -0.08234009 0.38702998 -0.09996953 9.8321e-41 0.082475774 0.07079063
0.041571032 -0.098781765 -0.10272341 -0.35723332 0.25332397 -0.082810394 0.09386055 -0.0405529
0.33555862 -0.36643445 -0.102368526 0.14365302 0.15556386 -0.2776558 -0.43111983 0.32470116
0.17504191 -0.20972496 0.30068913 0.26719087 -0.28592616 -0.37443033 -0.20366004 0.14405592
-0.304929 0.23776443 -0.3082073 -0.07638648 -0.22019114 0.24275075 -0.20081106 0.32995877
0.24806629 -0.109849475 -0.34710804 0.18663283 -9.8572e-41 -0.3153348 -0.025785113 0.23693198
-0.20104915 0.21650983 -0.0008400183 -0.22647692 9.8452e-41 -0.52919745 0.0045843674 -9.8318e-41
-0.46273345 -0.13895695 -0.18685347 -0.14622933 -0.05672778 9.8859e-41 -0.3369558 0.12157228
-0.14874512 0.079680234 -0.11143196 0.022618776 -0.27949423 0.2087823 0.21205027 -9.8338e-41
-0.28174195 -0.2821509 0.38018566 -0.34995487 0.14603953 -0.107477956 -0.16404967 -0.08002766
0.17115384 -0.0002720054 -0.084528446 0.27720222 -0.2778002 0.04408805 0.022402996 -0.0504907
-0.06461421 -9.837e-41 0.011910946 0.0802453 -0.21895117 0.0076055564 -0.042989906 -0.0877046
-0.016892372 -0.20122342 0.18044856 -0.1451584 0.09234275 0.07955931 0.084341206 -0.15636367
0.131893 0.03561931 0.08297053 0.051427357 0.12424389 0.22978918 0.033179175 0.42345926
0.18344098 0.16480418 -0.082422376 0.0060952296 0.46119174 0.110459834 0.0384983 -0.077032275
-0.13913046 0.03837512 -0.15766996 -0.19780579 0.113972306 -0.19655181 -0.2663503 -0.23900357
9.826e-41 0.08083132 -0.2290055 -0.19736308 -0.023121562 -0.077298425 -0.020345785 -0.11312123
-9.8975e-41 0.18237014 -0.016086057 -9.9041e-41 -0.001117814 0.019175025 -0.36680257 0.23118138
-0.036378995 -9.8993e-41 0.0678041 -0.15328716 0.05201175 0.22323735 -0.38174632 -0.09402556
-0.07622293 -0.10583281 -0.17361113 9.8253e-41 -0.014811456 0.10902718 -0.16400832 -0.03738555
-0.4000961 0.1993011 -0.12946098 -0.1341688 0.20673141 0.3278549 0.12258329 -0.024151161
-0.17514746 -0.08533262 -0.19140407 -0.2004601 -0.2759756 9.8957e-41 0.27406055 -0.035698965
0.3528843 0.080579914 0.1649887 0.10406314 0.18362549 0.035205778 -0.3066114 0.1612831
0.18917815 0.27320942 -0.14622004 0.017240306 0.00654585 0.019409223 0.044943646 -0.06815675

model.fc3.bias f4 [10]
00000000: bfef bdbd cf81 eebe dc98 89be 9ee2 823e
00000010: 3535 e53e c8dc 58bd db8a cf3c 61dc a63c
00000020: 83a9 6c3e 2da1 b9bb
-0.092742436 -0.4658341 -0.26874435 0.2556352 0.44767156 -0.05294493 0.025334766 0.020368757
0.23111539 -0.0056649656

model.sequntial.0.weight f4 [6, 3, 3, 3]
00000000: 6e5e e4bd 7571 c1be cd55 95be 417b c93d
00000010: fd62 c33d 1818 eebd ce4c a73e 224b 6d3e
00000020: ebe4 0b3f d5a8 893d 42ff 493e 1943 8abc
00000030: c7f4 fbbc b85a 653e 7d73 9cbc 0f07 6bbe
00000040: cf4f 05be 6c63 4cbe 2a0b 513e 48ad 063e
00000050: 0b0f ea3c bfb7 dfbc d172 193e ef00 653e
00000060: 7df7 27be d12a 19be 7993 ebbd 4b0f c9bd
00000070: f1b4 6f3e b8ae 05be 7f76 333d 398a 05bf
00000080: 82c7 5dbd 50cb 36bc f485 183e 782e 983e
00000090: 6c74 243e 5f3d a03e 9071 18bd 2710 baba
000000a0: 1aaf 86be 2c03 50be be27 1fbd d2f2 3f3e
000000b0: 99d9 473d 939d e2bd eca7 3b3e bde0 8d3d
000000c0: 4df8 a33d acb7 a4be daab 3dbe b460 38bd
000000d0: 8361 043c d821 6f3e e886 2c3e ff56 f73b
000000e0: 22e0 1bbe 08a0 0e3d 0968 193e 0d78 45be
000000f0: ace6 0bbe db09 36be 0b08 b53e 7a19 fd3d
00000100: 9280 943d 671f 29be 9c7c 123e fbf5 89bd
00000110: 160f 5cbd 625b d9be d903 edbc 3dec 9b3e
00000120: 7f0d c13e 15b4 cfbd d4e2 bebe 1bb4 d3bd
00000130: 288d aabb eb7f d03d 2058 11be ae86 043e
00000140: 2740 293e 90fb 05bd 95da ff3c b767 9fbc
00000150: 0964 be3d d3b0 75be a1b9 0b3e a9b9 8c3d
00000160: 8f13 60be da86 413e 8cb5 263e 52cc 92be
00000170: 560e 183e 6099 4d3e 1b23 a4be 2973 0e3e
00000180: 918c 543e 6be4 bcbe 498a d53d 69af 733d
00000190: c0d3 42be 6cbb a03d c39b 203e 07d1 8abe
000001a0: e739 383e da0a f13d 3c10 8ebe ba70 233e
000001b0: d9fe 863e 18d6 4a3e 807c 323e 8d8f 8a3d
000001c0: fd60 823e 7d42 1b3d c24b 85be a415 88be
000001d0: 355e 80bc bd99 e7bd 69c7 e73d e561 08be
000001e0: acee 97be 8792 123d 0c03 a03e b915 ddbe
000001f0: e220 06bf b090 04be 20ba dabc 8c5a 3ebe
00000200: 47bd fcbd e2a2 983c f48e 753e 217d 143e
00000210: e6c8 063e fa9b 7f3d a7d9 44bd 67f6 533e
00000220: 3ea5 debd 5d88 1d3e 1cff 83bd 0b76 ccbe
00000230: 76be 233e 0ed5 2bbe 5f96 21be 0410 5cbe
00000240: 1068 88bd 5ea5 3d3d 414f 20bb 4f31 123e
00000250: 1d34 6c3e c8d1 37bc 4360 3f3c 8e6e f8bd
00000260: a4c5 11be 7c0f 9ebe ddad 7d3e a067 ccbe
00000270: b0a2 0d3e 043d 933e c39f 2b3e 83b5 083d
00000280: a1fc c13e dd9f 803d
-0.111508235 -0.37781873 -0.29167023 0.09837962 0.09540365 -0.11625689 0.32675785 0.23173192
0.54646176 0.06721655 0.1972628 -0.016877698 -0.030756367 0.22397888 -0.019098038 -0.22951911
-0.13018726 -0.19959801 0.20414415 0.13152039 0.028571626 -0.027309297 0.14985205 0.22363637
-0.16403003 -0.1495774 -0.115027376 -0.0981737 0.23408867 -0.13054931 0.04381418 -0.52164036
-0.054145344 -0.011156872 0.14894849 0.29722953 0.16060036 0.31296822 -0.037217677 -0.0014195488
-0.26305467 -0.2031371 -0.03885626 0.18744972 0.0487915 -0.11065211 0.18325776 0.06927631
0.08006344 -0.3217138 -0.18522587 -0.0450141 0.008079889 0.23352754 0.16848338 0.0075482125
-0.15222219 0.034820586 0.14981093 -0.19284077 -0.13662213 -0.17777197 0.353577 0.12358375
0.07251085 -0.16515885 0.14305347 -0.0673637 -0.053725325 -0.42452532 -0.028932499 0.30453673
0.3770561 -0.1014177 -0.3728243 -0.10337087 -0.0052048154 0.101806484 -0.14193773 0.12942001
0.16528378 -0.03271061 0.031232158 -0.019458635 0.09296424 -0.23993234 0.1364503 0.06871349
-0.21882461 0.18899098 0.16280192 -0.2867151 0.14849219 0.20078039 -0.32058033 0.13911118
0.20756747 -0.3689302 0.104267664 0.059493456 -0.19026089 0.07848248 0.15684418 -0.271126
0.17990838 0.11769648 -0.2774676 0.1596097 0.26366308 0.19808233 0.17430305 0.067656614
0.2546462 0.037905205 -0.2603436 -0.2657901 -0.015669921 -0.1130862 0.11317331 -0.13318594
-0.2967428 0.03578427 0.31252325 -0.43180636 -0.52393925 -0.12945819 -0.02670008 -0.18589228
-0.12340789 0.018632356 0.23980314 0.14500858 0.13162574 0.06240461 -0.048059132 0.20699464
-0.10871361 0.1538405 -0.064451426 -0.3993381 0.15990624 -0.16780493 -0.15780018 -0.21490484
-0.06660473 0.046300285 -0.0024461302 0.14276622 0.23066755 -0.011219449 0.011680665 -0.12130462
-0.1423555 -0.3087119 0.24773355 -0.3992281 0.13831592 0.2875749 0.16760163 0.033376228
0.37888053 0.062804915

model.sequntial.0.bias f4 [6]
00000000: e79d 26ba 256d a7bb 295e 81b7 20ba c33a
00000010: 02da b53a 1639 e3b9
-0.0006355927 -0.0051094466 -1.5421845e-05 0.0014932789 0.0013874175 -0.00043339346

model.sequntial.1.weight f4 [6]
00000000: 2b68 673f 70e3 803f 058e 4d3f 8bf3 ab3f
00000010: 3d0f 7c3f 294d 413f
0.9039332 1.0069408 0.8029483 1.3433698 0.9846075 0.7550836

model.sequntial.1.bias f4 [6]
00000000: 91b9 2b3e 4562 acbd abcc 10be 69e0 e8bd
00000010: 56d8 103e 549d 383e
0.16770007 -0.08417181 -0.14140575 -0.11370928 0.14145026 0.18028766

model.sequntial.1.running_mean f4 [6]
00000000: 4ed6 b1bd c62a 86bc 5667 16ba a0a4 57bc
00000010: 550c f33d 9fb4 b8bb
-0.086834535 -0.016377818 -0.0005737444 -0.013161808 0.118675865 -0.005636766

model.sequntial.1.running_var f4 [6]
00000000: 0f77 cb3e 80c8 823e 4b17 423e d85f da3e
00000010: 0e88 6b3f 591a 643e
0.39739272 0.25543594 0.18954198 0.42651248 0.9200448 0.22275676

model.sequntial.5.weight f4 [16, 6, 3, 3]
00000000: 9291 c5bd 6280 dabd 9430 07be d216 acbd
00000010: 2343 0dbe 6469 53be 4d6d 2bbe e827 41be
00000020: 8b5d 01be f5b9 d03b e546 dc3e 8be6 8d3d
00000030: 9307 c63e e10d 5fbe 5de9 cc3e 0ef0 883e
00000040: 0ffb 7d3d c4d1 393e d2ba 88bc fc34 183e
00000050: 7258 703e 9f7d a53d 4d49 953c 82aa 703e
00000060: b29d da3d 776d 933e 0bb4 bf3d d283 0dbe
00000070: a05c 81bd 513b 43bd 532e b5bc 94e4 1abe
00000080: 8b9a ae3d 923e de3d e89d 6e3e 18d1 80bd
00000090: 1450 f8bd f6b3 23be 58be b8bd d6a1 44be
000000a0: 5e05 1abe 5bfd d2bb 44d1 01be aeb3 93bd
000000b0: c7ee 39bc 4efb 1f3e 386e 22be b4a1 5cbe
000000c0: a4d4 13be bad2 03be 8a78 5fbd f739 84be
000000d0: e58b 6abd 1313 cc3d 84d6 ecbb db7f cfbd
000000e0: 6ffd 073d b668 d93d 2294 ba3b 8740 953e
000000f0: 5c02 2d3d 9d87 bdbc 935b a03d efd5 833e
00000100: a70e b53c b649 403e 0bdc 8a3e ad85 fa3d
00000110: 0f85 5b3e ee9e 463d 40fd 2b3e e126 93bd
00000120: a440 c1bd 7962 03bd 4894 93bd 90d7 563b
00000130: 8e83 94bd 7a04 52be 9254 c93d 6180 b5bd
00000140: b8e4 31be 8d73 8bbe 8413 a9be 9ebf 2cbe
00000150: 2f7d e1be 4b7b 28bf 9b33 e9be 3bfe debe
00000160: 90f7 36bf 2474 f8be db14 993d 28be 9d3d
00000170: 2082 283e 5a74 9bbd fef4 073e f4c1 9a3d
00000180: 4486 0b3d db51 003e 0518 803c 7818 5d3d
00000190: c0a0 88bc ecfd a4bd 2eeb 923d 7fff 6dbc
000001a0: 3e59 37bb e8e8 243b b1ff 1c3c 9de1 96bd
000001b0: 8b78 d03d 0f8d b0be 6712 d3be 5ce4 44ba
000001c0: adae c4be 3c5e 75bd d79f 70be 64b9 dcbe
000001d0: 1fab edbd 9fb5 6ebe 7297 c7bd 5222 af3d
000001e0: 68ea e9bc de6b 793b 83e2 3fb9 dae5 b3bc
000001f0: 0022 aabd a678 a5bd 4fe2 7ebe e844 573d
00000200: 8d72 0b3e c59b 0bbe acbd 2d3d 4931 9f3d
00000210: df6d 9e3d c5a1 313e 8de5 c43d e608 7dbd
00000220: 3786 b8bd 3f16 9dbc f3d6 85bb 19f8 84bc
00000230: 3263 29bc 32b5 a9bc af9e 41bd 49b1 e33c
00000240: 922c a1bd 5ffe 44bd 3cfe 013f 39a1 bc3d
00000250: 7a28 b93e 7b6d 913d bf58 4b3e a49f a63d
00000260: 8a1c 203e 6dbb 0f3e 287e ddbd 2fbd 7ebe
00000270: 1d25 eb3d fe8d 54be 4ed8 03be 8065 f0bd
00000280: 0f85 98be c129 42be 18a9 e93d d061 ea3d
00000290: 7119 403d 75c5 11bd ea1d 0fbd 6bba 8ebd
000002a0: 7b65 98be 7c01 c8be 1305 bfbe fa18 303d
000002b0: 174a 5dbd e3dd 27be a41c 733d a988 11bd
000002c0: 3766 81be b0aa cb3c 8686 42bd b0c9 a1bd
000002d0: 7917 9bbd feb8 a6bc 804e a23c d8d8 a03d
000002e0: 9e18 b63d 0783 633d a91c 173e 79f9 2a3d
000002f0: 9c4d 113e 8002 38be 8f96 88be 3213 60be
00000300: 0e66 b6bd 38ee 20be 912f 25be c017 aa3e
00000310: 9f20 cb3e 3665 2e3f 8df5 80bd a5ad 753d
00000320: d36c c53d 6182 41bd 931f df3c dcbb 953d
00000330: 24f3 273d b95f 86bc 25f8 d73d b9df dd3d
00000340: b4d1 893c 3d40 e43c 397d 68bc 0a3c d3bb
00000350: 165b cb3d b68f b4bd 4637 783d df47 77bd
00000360: 72e1 c7bd 6cf8 76bd c35a ff3d 7e29 09be
00000370: 4191 20bb be73 943d 7509 bdbd c681 d33b
00000380: 4055 023d 1795 a1bc 79d9 193e 1891 b9bd
00000390: 4e1a ad3e 8783 a5bd 703a 2dbf 78fb f93d
000003a0: 59ec 40bf 3075 c0be d7e4 2e3d 3c9e 893e
000003b0: 0cf5 da3c a059 993e 2a75 9c3d 8f3e d5be
000003c0: ff0b f63d bf6d 00bf cf78 a1bd c270 8dbc
000003d0: 1f00 073e 2941 72bd fc40 b43c 82f7 b6bd
000003e0: 3964 36be 5064 21bd ab49 dbbe d8f3 623a
000003f0: c100 983d ff8d df3d e495 28be 5e5c a43d
-0.09646906 -0.10669018 -0.13202125 -0.0840279 -0.13795142 -0.20645672 -0.16740914 -0.1886288
-0.1263334 0.006369824 0.43022838 0.06928738 0.38677654 -0.21782638 0.40021792 0.26745647
0.062007006 0.18146425 -0.016690645 0.14863962 0.23471239 0.08080601 0.01822343 0.23502544
0.10674609 0.28794453 0.09360512 -0.13819817 -0.06316495 -0.04766399 -0.022116816 -0.15126258
0.085255705 0.10851778 0.23302424 -0.062898815 -0.12124649 -0.15986618 -0.0902068 -0.1920236
-0.1504111 -0.0064388937 -0.12677485 -0.072120056 -0.011348433 0.15623209 -0.15862358 -0.2154606
-0.14436585 -0.12873355 -0.054558314 -0.25825474 -0.05726232 0.099645756 -0.0072277207 -0.10131808
0.033200677 0.10615675 0.0056939283 0.29150793 0.04223858 -0.023135955 0.078299664 0.25749156
0.022101713 0.18778118 0.27121004 0.12232528 0.21437477 0.04849141 0.16795826 -0.0718515
-0.09436157 -0.032076333 -0.07206017 0.0032782294 -0.072516546 -0.2050952 0.09830584 -0.08862377
-0.17372406 -0.27236596 -0.33022702 -0.16869971 -0.4404082 -0.6581313 -0.45547184 -0.43553337
-0.714715 -0.48526108 0.07474681 0.07702285 0.16455889 -0.07590552 0.13277051 0.07556525
0.034063593 0.12531225 0.015636453 0.053978413 -0.016678214 -0.08056244 0.07173763 -0.014526247
-0.0027976776 0.0025163237 0.009582446 -0.07367251 0.10179242 -0.3448262 -0.41224977 -0.0007510835
-0.38414517 -0.059904322 -0.23498474 -0.43110192 -0.116049044 -0.2331147 -0.09745683 0.08551468
-0.028554156 0.0038058679 -0.00018299562 -0.021960188 -0.08307266 -0.080796525 -0.24891017 0.05255595
0.13617916 -0.1363364 0.042417213 0.07773072 0.077358 0.17346866 0.09614096 -0.061776064
-0.090099744 -0.019175647 -0.004084462 -0.016231583 -0.010338591 -0.020716283 -0.047270473 0.027794497
-0.07869829 -0.04809415 0.50778556 0.09210438 0.36163694 0.0710096 0.19858073 0.08135918
0.15635887 0.14036341 -0.10815078 -0.24876855 0.11481688 -0.2075729 -0.12875482 -0.117381096
-0.29789016 -0.1896124 0.11409205 0.114444375 0.046899263 -0.0355887 -0.034940638 -0.0696915
-0.29764923 -0.39063632 -0.3730856 0.04299257 -0.054025736 -0.16393237 0.059353486 -0.03553072
-0.25273296 0.024861664 -0.047491573 -0.07899797 -0.075728364 -0.020351883 0.019812822 0.0785386
0.08891414 0.05554488 0.14757027 0.041741822 0.14189762 -0.17969704 -0.26677367 -0.21882322
-0.08906184 -0.15715873 -0.16131426 0.33221245 0.39673325 0.68123186 -0.06296835 0.059980053
0.09639897 -0.04724348 0.027236735 0.07311222 0.04100336 -0.016403066 0.10545377 0.10833687
0.016823627 0.027862662 -0.014190012 -0.006446366 0.09929483 -0.08816473 0.060599588 -0.060371276
-0.09759797 -0.060295507 0.12468483 -0.13394734 -0.002450064 0.072486386 -0.092303194 0.006454679
0.031819582 -0.019724412 0.15024365 -0.090608776 0.3380913 -0.080817275 -0.67667294 0.12206167
-0.7536064 -0.37589407 0.042698707 0.26878536 0.026728176 0.2995119 0.07639535 -0.4164929
0.12014007 -0.5016746 -0.078843705 -0.017265681 0.1318364 -0.059144173 0.022003643 -0.08933927
-0.1781167 -0.039402306 -0.42829642 0.00086575514 0.07422019 0.109157555 -0.16463429 0.0802543

model.sequntial.5.bias f4 [16]
00000000: 15b1 c2b9 52af 083a fba7 bbba ee33 3c3a
00000010: 869b 88ba ad6c 103a c136 0b3a 4567 3db9
00000020: 99cf b1ba 2388 5c3a a3a5 0bbb e6d7 d7b9
00000030: b48f aa3a 30e3 3339 f834 3eb9 add6 813a
-0.000371345 0.0005214113 -0.001431703 0.0007179369 -0.0010422326 0.0005509358 0.0005310588 -0.00018062915
-0.0013565897 0.000841262 -0.0021308444 -0.00041168852 0.0013012798 0.00017155404 -0.00018139544 0.0009905897

model.sequntial.6.weight f4 [16]
00000000: b177 ff3e a78d 983f 60d8 4e3f e840 2b3f
00000010: 3157 843f 67a8 203f e186 153f f771 a93f
00000020: e890 fe3e 1cb2 803f 5e2d 413f 42b4 4e3f
00000030: 2320 283f 2536 3a3f c9e4 a33f 59a9 483f
0.49896005 1.1918229 0.8079891 0.66895914 1.0339109 0.6275696 0.58408934 1.3237904
0.4971993 1.0054355 0.7545985 0.807438 0.65674037 0.7273887 1.2804195 0.78383404

model.sequntial.6.bias f4 [16]
00000000: c0fb 17be 1b60 00bf 4f50 8bbe 0d69 eebe
00000010: 5a8a 40bf 3156 d5bd 161e afbe 03d9 3abf
00000020: 1804 e03d fe6e 09bf bee6 f9be 6a96 1fbf
00000030: 8c9e 0ebe b7ed 86bd d52f 4abf 73dc febe
-0.14842129 -0.50146645 -0.27209708 -0.46564522 -0.7521111 -0.1041683 -0.3420264 -0.72987384
0.10938281 -0.53684986 -0.48808855 -0.6233889 -0.13927668 -0.06588309 -0.78979236 -0.49777564

model.sequntial.6.running_mean f4 [16]
00000000: 3c4c d2be 0a64 afbf 4f6e 99bf bec5 23be
00000010: dc47 c4bf d0f1 9ebe 6ddc 623d b05f 28c0
00000020: f42f 0fbf 0ba2 86bf ce87 4dbf 4344 24bf
00000030: 2fc6 d23e ae83 48c0 b119 51c0 29b9 2fbf
-0.41073787 -1.3702404 -1.1986789 -0.15993401 -1.533443 -0.31043863 0.055385996 -2.6308403
-0.55932546 -1.0518202 -0.80285347 -0.6416666 0.41166827 -3.133037 -3.267193 -0.68641907

model.sequntial.6.running_var f4 [16]
00000000: db6e ab3f d2fd b040 3c17 3240 6452 8e3f
00000010: b9fb 2240 16f9 0040 0959 643f ee4e a140
00000020: effc c73f 2310 2540 e301 993f cf9f 8a3f
00000030: d7ab a63f f554 6740 475e 9c40 9a1e 653f
1.3393205 5.530984 2.782668 1.1118894 2.546614 2.015203 0.89198357 5.040885
1.5624064 2.57911 1.1953701 1.083002 1.3021191 3.6145604 4.8865085 0.8949982
